MITAI/1MIT/SUI/dicewars/ai/xholko02/model_older.pt (torch, 725493 bytes, 14 tensors)

fc1.weight f4 [256, 633]
000000 dd ec 8a 3c db fa 7a bc 04 e0 d7 3c 85 06 5f 3c
       0.016958648 -0.015318598 0.026351936 0.013612394
000010 3a 77 9b 3c 3d b7 bb bc 4c 5d 0d 3d 9f 19 d9 bc
       0.01897775 -0.022914523 0.034512803 -0.026501475
000020 5c a5 a5 3c 58 b5 f2 bc 3e 79 0e 3c bc 71 ea bc
       0.020220451 -0.029627487 0.008695899 -0.028618686
000030 6a 5a 3e ba 8d 52 a4 b9 74 40 4a 3c 4c 7c 74 3c
       -0.00072613975 -0.00031342023 0.012344468 0.014922213
000040 23 7d 3d bb 4e 99 02 3d 43 63 a4 3c 54 12 50 3b
       -0.0028913699 0.031884484 0.020066863 0.0031749206
000050 41 eb 0e 3d 7b 38 50 bc a4 83 03 3c 9a 7f ae bc
       0.034892324 -0.0127087785 0.008026991 -0.02130108
000060 d2 ea 5b bc 82 a8 d2 3c c0 ef 80 bc f8 5c 1d 3b
       -0.013422685 0.025715116 -0.015739322 0.0024011713
000070 9a fb a9 bc 55 7f 19 3d 06 e6 98 3c 32 96 23 bd
       -0.020749856 0.03747495 0.018664371 -0.03993816
000080 a0 84 ba bc a0 ba 7a 3b 2a d2 1b 3c 3c 2b 92 bb
       -0.022768319 0.003825821 0.009510556 -0.0044607203
000090 f9 ce fb bc 1c e4 f0 bc 66 c8 f6 bc f2 62 6a 3b
       -0.03073834 -0.029405646 -0.030124854 0.0035764542
0000a0 b6 f0 de bb 38 de e6 bc a7 98 5c 3b 87 38 44 3c
       -0.0068035973 -0.028182134 0.0033660324 0.011976368
0000b0 7f 2e 69 3c ec c1 eb bc 83 64 fc 3c 03 8b 1d 3d
       0.014232277 -0.028778993 0.030809646 0.03846265
0000c0 34 fa a8 bc d3 e9 09 ba e5 87 cf bc d6 fc 4d bc
       -0.020627119 -0.0005260978 -0.025333354 -0.012572488
0000d0 7c 02 ac bc 7b cb 07 bc 24 f5 b8 3b f6 50 50 3b
       -0.020997278 -0.00828826 0.0056444574 0.0031786538
0000e0 c7 ef 23 3c 94 e4 fe ba cb 34 a4 3c c3 68 12 bd
       0.010005898 -0.0019446784 0.020044705 -0.03574444
0000f0 48 d8 28 bc 80 01 3b 3a 82 c4 bf 3c cb 53 7d bc
       -0.010305472 0.00071337074 0.023409132 -0.015461872
000100 09 35 e1 b9 c9 f1 11 bd 52 dc 01 3d 1b 24 a3 bc
       -0.00042954859 -0.035630975 0.031704254 -0.019914677
000110 08 5c 66 bc f9 ce 62 3d ac d0 6e 3c 88 4f d7 3c
       -0.014060028 0.055373166 0.014576118 0.02628304
000120 3c 57 e0 3c 43 f9 98 bc 53 4a 7b bc 62 d5 0f bd
       0.027385347 -0.018673545 -0.0153375445 -0.035115607
000130 96 c5 88 bc 1f d7 d2 bc 74 7f 96 bc 4f 9e d5 bb
       -0.016695779 -0.025737343 -0.018371321 -0.006519116
000140 2b 2e c4 3c f1 0f 13 bd 29 84 94 3b 29 90 d9 3c
       0.023947796 -0.035903875 0.0045323563 0.026557999
000150 56 78 ea bc b6 c0 d9 3c 04 54 11 3d 75 97 f3 3b
       -0.028621834 0.02658115 0.035480514 0.0074338266
000160 81 ae f8 bc 2c b6 55 bc 58 21 27 3d f1 d3 06 3c
       -0.030356647 -0.013043921 0.040803283 0.008229242
000170 13 ce 85 3b 07 04 fa 3c 06 52 f2 b9 30 4a 3f bc
       0.004083404 0.030519499 -0.0004621895 -0.0116754025
000180 38 99 9b bc 0d 24 0a bd 3a 2f 05 3d 51 4f 2e bd
       -0.018993959 -0.033725787 0.032515742 -0.04255611
000190 2e c2 9d bb 63 77 70 3a 89 01 d3 bc 3b a6 3b bb
       -0.004814408 0.00091730634 -0.025757568 -0.0028633017
0001a0 b9 cd 77 bc d2 8d 30 3c 58 b3 b3 ba 33 d3 b9 3c
       -0.015124732 0.010776 -0.0013710065 0.022683715
0001b0 76 4b 5e 3c 47 8e 4b 3a 5c 4b a7 bc 56 73 dc 3c
       0.013567796 0.00077650364 -0.020421676 0.026910465
0001c0 78 0a 03 bc 94 82 0e 3c 2b 52 05 bd f0 55 6a bc
       -0.007998101 0.008698124 -0.032549065 -0.014302716
0001d0 d4 7d 91 bc 96 2e 0f bd fe b6 6e 3c c7 07 2d bd
       -0.017760195 -0.034956537 0.014569996 -0.042243745
0001e0 72 f4 b5 bc 35 7a a8 3c 16 7c d9 3c c3 db 9b 3c
       -0.022211287 0.020566085 0.026548427 0.019025689
0001f0 ad f2 b5 3c e9 ce e5 3c 57 1f af bc e0 cc 36 3d
       0.022210443 0.028052764 -0.021377249 0.044628978
000200 cb c7 57 bc 60 fe 3c bd c6 c0 b7 3b d3 08 5a bc
       -0.013170193 -0.04614103 0.005607697 -0.013307768
000210 4f 59 54 bb 88 9a f6 bb b3 7a c4 bc 27 d7 31 bd
       -0.0032401865 -0.007525746 -0.023984289 -0.043418076
000220 b0 90 a4 3c f7 10 0b bd 48 f9 0f 3d cf 97 e0 bb
       0.020088524 -0.033951726 0.035149843 -0.0068540345
000230 bc c2 60 bc c2 c8 e2 3b aa 2c bd bc 0c 01 59 3c
       -0.013718303 0.006920905 -0.023092587 0.0132448785
000240 61 f5 c7 3c 11 7f 62 bc 8a 02 20 bd e0 0c b4 3c
       0.024408998 -0.01382424 -0.03906492 0.021978796
000250 01 92 8a ba be ef 1e bd d6 5d 01 bd 83 b0 a8 bc
       -0.0010572077 -0.038802855 -0.03158363 -0.02059198
000260 fa ed 19 3d 91 bb 57 bc 1b a7 03 bd 9a 0d c7 bc
       0.037580468 -0.013167278 -0.032141786 -0.024298478
000270 ee 21 af 3a 4e 90 db ba 0f 43 b4 bc 00 64 09 bc
       0.0013361552 -0.001675138 -0.022004632 -0.008385658
000280 6c 07 23 3d ae 1e 09 3d 19 18 02 bd 05 1d df 3c
       0.039802 0.033476524 -0.031761263 0.027235517
000290 41 3e 1d bd bc 9c 6e bc 29 dc 12 bd be 03 27 bc
       -0.038389448 -0.014563736 -0.035854492 -0.010193763
0002a0 4b 11 be bc 26 fc b9 bb 05 57 5f 3c e7 c6 da bc
       -0.023201605 -0.0056758104 0.013631587 -0.026706172
0002b0 63 ae a2 bc 91 29 a3 bb a4 80 4a bc f8 73 0c 3d
       -0.019858545 -0.0049793203 -0.012359772 0.034290284
0002c0 59 11 06 bc de db 92 ba b8 a5 09 3c 54 cd 01 3c
       -0.008182847 -0.0011204442 0.008401327 0.007922489
0002d0 7f 29 5e bc 64 a9 e7 3c 77 af 58 bc 7d f9 a6 bb
       -0.013559698 0.028279014 -0.013225428 -0.0050956593
0002e0 6a de fa 3c 14 65 37 3d bd 40 9c 3c fc ad 80 3c
       0.030623633 0.04477413 0.019073838 0.015707962
0002f0 12 d6 24 bd 45 32 44 bd 93 fc db 3c 5d 27 52 3c
       -0.040243216 -0.047899503 0.026853835 0.012826768
000300 6d 2f b5 3a bd b5 2c bd e3 5c d7 3c 86 12 1b bd
       0.0013823338 -0.042165507 0.026289409 -0.037859462
000310 a1 27 88 bb 06 2b 0e bd bf 56 16 3d 1f 30 30 3c
       -0.0041551148 -0.034709 0.03670382 0.01075366
000320 7b 1a 27 bb 09 ce c4 bc c8 f8 33 bc 67 51 1d bc
       -0.0025497961 -0.024024026 -0.010984607 -0.009601927
000330 76 6b e3 bc 7a c8 26 3c 44 6f 05 3d 6b e1 3e bc
       -0.027761202 0.010179633 0.032576814 -0.0116504235
000340 2c cd 47 bc f6 85 9d 3b 0e b1 8d bc 4e a1 8b bc
       -0.012194913 0.004807229 -0.01729634 -0.01704469
000350 d7 0b 29 3d c6 46 11 3d 6f 31 71 bc 6c cf cc bc
       0.041271057 0.035467885 -0.014721259 -0.02500125
000360 67 40 10 bc b0 ed 8c 3c c0 f6 c2 bc ed 5d 0d 3d
       -0.008804417 0.017203182 -0.0237993 0.034513403
000370 f8 18 48 3c e4 dc 0a 3d 27 6e 48 bc 4a 52 a7 bc
       0.012212984 0.033902064 -0.012233294 -0.02042498
000380 be f3 ef 3c 0d bc c9 bc 98 d7 81 bc fd c8 54 bc
       0.02929103 -0.024625802 -0.015849873 -0.012987372
000390 3e 50 39 bd 33 75 02 bd 2a 76 1b 3c 4d 49 dd 3c
       -0.04524254 -0.03185005 0.009488622 0.027012492
0003a0 ff dc 2f bb 4d 6f 93 3c 82 54 61 bc 60 b2 72 3b
       -0.0026834605 0.017997408 -0.013753058 0.003703259
0003b0 b2 d4 c1 bc c6 aa af 3c 5e ed 5f 3b d7 af 80 bc
       -0.023660991 0.021443736 0.0034168581 -0.015708847
0003c0 bf ed eb 3c 48 2a e4 3c 80 c0 96 bc f3 9a 98 3c
       0.02879989 0.027852193 -0.018402338 0.018628573
0003d0 cc 59 16 3d c1 0a 1e bd 22 c9 04 bd 13 60 fc bb
       0.03670673 -0.038584474 -0.032418378 -0.0077018826
0003e0 02 fb 0e bd 16 38 53 3c af fc 0e 3d fd af eb 3c
       -0.03490735 0.01289179 0.034908947 0.028770441
0003f0 ba 0d 65 3c 72 c7 e8 bc ed d3 99 bb 25 e5 25 3d
       0.013980323 -0.028415415 -0.004694453 0.040501732

fc1.bias f4 [256]
000000 7f 7e 60 bc 76 08 ae bc d8 82 16 bd 46 88 7b 39
       -0.013702034 -0.021244269 -0.036745876 0.00023987991
000010 67 c4 58 bc cc 79 16 bc 82 2f f9 3c cb 1a a6 bc
       -0.01323042 -0.009184312 0.030418161 -0.020276448
000020 4c 5a 1b 3d b2 04 be 3b 32 71 2c bc 46 55 11 3d
       0.03792791 0.0057988996 -0.010525035 0.035481714
000030 7e b9 54 bb d1 2e 04 bb be 00 1e 3d cd 76 8b bc
       -0.0032459195 -0.0020169506 0.038574927 -0.017024422
000040 c0 8a 0b 3d 71 5c 93 3c 7b 1a d8 bc 0c af 70 3c
       0.03406787 0.017988415 -0.026379814 0.014690172
000050 71 ab c6 3a a7 3b 0a 3d e4 0f d9 bc 12 2a 16 3d
       0.0015157295 0.033748295 -0.026496835 0.036661215
000060 3c d3 45 3c 35 88 f8 3c f8 32 6b 3c f4 6d f0 3b
       0.012074288 0.030338386 0.014355414 0.007337326
000070 7f 15 06 3d de 81 13 bd 77 d1 12 3d 37 78 aa bc
       0.032735344 -0.036012523 0.035844292 -0.020809276
000080 33 75 96 bc b4 44 87 bc 6b 99 de 3c 4d d4 15 bb
       -0.018366432 -0.016512252 0.027172765 -0.0022862137
000090 67 b7 c9 3c d1 2e c6 bc 4d db 09 3d b8 0e dc bc
       0.024623586 -0.024192246 0.033656407 -0.026862487
0000a0 5b 9b 89 3b e3 a3 91 3c e5 0c 6f 3b a8 7a d1 bb
       0.004199428 0.017778343 0.0036476192 -0.0063927956
0000b0 12 fd 94 bc a6 7d 99 3c ed 3d 0f bc 79 c6 85 bc
       -0.01818708 0.018736672 -0.008742792 -0.01632999
0000c0 c3 b8 50 3c f4 b3 18 3d 82 06 be bc b4 6f 0d 3d
       0.012739363 0.03728099 -0.023196463 0.034530357
0000d0 80 cf a4 3c 61 70 9b bc 2b 03 b3 3b 8b cb 20 bb
       0.020118475 -0.018974485 0.005463024 -0.0024535384
0000e0 d7 01 12 ba cd 32 65 bc 84 a8 6d 3b 25 35 0f bd
       -0.0005569732 -0.013989163 0.0036263773 -0.034962792
0000f0 66 d7 d4 3c cf 0d b4 bb bf 7d 96 bc 12 9e 88 bc
       0.025981616 -0.00549481 -0.018370507 -0.016676936
000100 3a b9 1f 3d 38 25 92 38 c1 4d 07 bd 2a 74 40 bb
       0.038995005 6.968755e-05 -0.033033136 -0.0029366114
000110 6b 2d 91 bc fe da 3a bc d0 41 0f bd 5e b5 c8 3c
       -0.017721852 -0.011404751 -0.034974873 0.024500545
000120 ad 3e ea 3c b3 7f f5 bc 47 40 18 3d 3c 9e 34 3b
       0.02859434 -0.029968118 0.037170675 0.0027560135
000130 53 5e 26 bc 5f e5 17 bd 5c 3c ce 3c f0 0d 78 bc
       -0.010154325 -0.03708398 0.025175266 -0.015140042
000140 0f b0 1b bd 11 30 08 3d e2 01 4a bc c5 20 f2 3c
       -0.0380097 0.033248965 -0.01232955 0.029556641
000150 ad 01 a8 3c 95 52 31 bc 04 e1 06 3d 1c 3c f2 3c
       0.020508612 -0.010822912 0.032929435 0.029569678
000160 de b5 27 bc bb 8c d5 bc 19 05 0c 3d 06 89 2b 3c
       -0.010236232 -0.026068082 0.03418455 0.010469681
000170 e9 5a 15 3c e9 ae 20 bb dc e0 f4 3c 8e 17 f8 3c
       0.009115913 -0.0024518317 0.029892378 0.03028467
000180 1e 39 90 bb 3b 7a 0e bd 49 06 ed bc 1c 16 80 3b
       -0.00440134 -0.034784537 -0.028933661 0.0039088856
000190 cb ea 21 3d 37 86 01 3d 00 ab db 3b cc 3e f7 3c
       0.039530557 0.031622138 0.0067037344 0.030181311
0001a0 32 74 af 3a 6a 54 06 bd 46 07 51 bc 73 22 f6 bc
       0.0013386069 -0.032795347 -0.012758082 -0.030045724
0001b0 38 2a 03 bd d9 ba 4c bb eb 9a 98 bc 9e 9c 85 3c
       -0.032022685 -0.00312393 -0.018628558 0.016310032
0001c0 e9 64 9c 3b 33 fc e2 3b 7d e7 f7 3c c2 a4 7c bb
       0.0047727716 0.006927037 0.03026175 -0.0038550352
0001d0 67 d0 d5 bb 20 4e 04 bd 76 24 6b 3c 60 8c 13 bc
       -0.0065250876 -0.03230107 0.014351955 -0.009005636
0001e0 21 be 7f bb 6f 5b c0 3c 04 be 12 3d 87 68 91 bc
       -0.0039023238 0.023481099 0.035825744 -0.017750038
0001f0 72 98 b1 3b 6b 75 2b bc 07 72 24 bc 14 c5 03 3d
       0.005419784 -0.010465006 -0.010036952 0.03217037
000200 1d b2 c2 bc c9 e5 89 3c f9 19 be bb e7 7a 57 bc
       -0.023766572 0.016833203 -0.005801436 -0.013151861
000210 c7 06 cc 3c 40 65 0d 3c 55 aa 0f 3c c0 6a dc bc
       0.024905575 0.008630097 0.008768638 -0.026906371
000220 8f 49 0a bd 72 ac 05 3b 5c 1f 66 3c ea 8c 8a bc
       -0.033761557 0.0020396975 0.014045563 -0.016912896
000230 ee 26 cb 3c 55 87 fa 3c e7 78 c1 3b 0a d0 1d bd
       0.024798837 0.03058211 0.0059043053 -0.03852848
000240 d7 82 8a 3c 36 1b 1d bd 59 59 7f bc f4 5c de bc
       0.016908092 -0.03835603 -0.015585267 -0.027143933
000250 b9 98 19 bd 65 91 f6 bc 17 b3 33 3c 6c 91 d2 bb
       -0.037499163 -0.030098626 0.010967991 -0.006426027
000260 e7 38 a2 3b f6 27 47 3c 3d da 0a bd ed 23 26 3d
       0.004950631 0.0121555235 -0.033899534 0.040561605
000270 8e 93 77 3c 17 c9 70 3c 0c b0 12 bd dd 87 8c bc
       0.015110863 0.014696381 -0.035812423 -0.017154628
000280 8e 21 d1 3c 1b c3 95 3b 3a 02 99 bc 48 84 9d 3c
       0.025528695 0.0045703775 -0.01867782 0.019228116
000290 ef 94 bb bb ce 5b e0 3a 4f 55 f8 bc 79 f9 36 bc
       -0.0057245414 0.0017117204 -0.030314116 -0.011167877
0002a0 1a 9a e4 3c 44 04 14 bd da 83 21 3d 0f 4e a3 3c
       0.027905513 -0.03613688 0.039432384 0.019934682
0002b0 0d 61 da 3c a2 cd c5 3c 8e b3 00 3c f7 aa cf bc
       0.026657606 0.024145905 0.007855309 -0.025350077
0002c0 0a 87 d7 bb e4 14 80 3c a4 8d a1 3b 3b 07 0c 3d
       -0.006577377 0.015634961 0.004930215 0.034186583
0002d0 e3 27 59 bc a8 c0 5b bc 6b a8 38 3c 06 b2 eb bc
       -0.013254139 -0.013412632 0.011270623 -0.028771412
0002e0 58 6e 1f bd 54 f7 cd bc f9 1c be 3c 8a d3 32 3c
       -0.03892359 -0.02514235 0.023207175 0.010914693
0002f0 f9 b7 c1 bc 9d 53 8a 3c ac 9f cb bc b8 46 30 3c
       -0.023647295 0.016885573 -0.02485641 0.010759048
000300 1b d0 5a 3b e0 7d ea 3b 5f 3d 72 3a b5 09 7a ba
       0.00333882 0.0071561188 0.00092407124 -0.00095381896
000310 f1 92 82 bc 0a 84 0f 3d 90 4c 4a bc 42 75 c0 3c
       -0.015939208 0.03503803 -0.0123473555 0.023493413
000320 c4 80 d1 bc d8 db f4 3c 8c 3a 07 bd b3 ee 0d 3d
       -0.025574096 0.029889986 -0.03301482 0.03465147
000330 60 be fa 3c d7 ac 04 bd f3 f8 16 bd 31 2f 0f 3d
       0.030608356 -0.032391395 -0.03685851 0.034957115
000340 cb a1 1c 3c 6c b3 03 3d 21 c7 f9 3c 08 b6 a2 3c
       0.009560059 0.032153532 0.03049046 0.01986219
000350 33 81 eb 3c 63 9b d9 3c 2f dd 8e bc 54 0a fe bc
       0.02874813 0.026563352 -0.017439453 -0.031010784
000360 ca 58 4c bc 94 e4 6c 3c 13 8f 7d 3c fa 37 32 bc
       -0.012472341 0.014458794 0.015476006 -0.010877604
000370 40 d6 2e 3c a8 6f 6d 3c f6 57 0e 3d 3a db f1 bc
       0.010671198 0.014491953 0.034751855 -0.02952348
000380 92 89 65 bc 9d 38 96 3b 6d 93 12 3c 5f 45 ce 3c
       -0.01400985 0.0045843855 0.008946282 0.025179563
000390 26 66 9c ba aa 01 ca 3c 7e b2 3f bb 4a 5a f8 3c
       -0.0011932298 0.024658997 -0.0029250677 0.03031649
0003a0 52 b5 f8 3c 83 97 eb ba 81 85 10 3d f8 ce f4 bc
       0.030359898 -0.0017974231 0.03528357 -0.029883847
0003b0 88 20 03 bd 98 18 c1 bb 41 0c 1a bb 36 70 23 bc
       -0.032013446 -0.0058928244 -0.002350584 -0.009975484
0003c0 88 6f 28 3c 32 a3 8b bc 3d ca 0a bd b9 3c 08 bd
       0.010280497 -0.017045591 -0.033884276 -0.033261035
0003d0 1a 7c fa bc 3d 6b 05 bd 49 03 b9 3c 83 8a f8 bc
       -0.030576754 -0.032572974 0.022584574 -0.030339485
0003e0 71 76 40 3c 8b 60 08 3d f6 69 d1 3c a0 de ee 3b
       0.011746989 0.033295196 0.025563221 0.0072897226
0003f0 d1 78 1a bd 62 a5 e0 bb 3b 20 ec bb de d4 10 3d
       -0.037712876 -0.0068556527 -0.0072059906 0.035359256

b1.weight f4 [256]
000000 6d 7f 7f 3f 8d b8 80 3f cc c5 7f 3f a5 b7 7e 3f
       0.9980381 1.005632 0.9991119 0.9949897
000010 fe 55 7f 3f e5 d4 7f 3f ef a8 7f 3f a1 fc 7f 3f
       0.9974059 0.99934226 0.9986715 0.99994856
000020 2f bf 80 3f dc 10 80 3f d0 fb 7f 3f ae f8 7f 3f
       1.0058345 1.0005145 0.9999361 0.9998883
000030 59 e4 7f 3f f8 cc 7f 3f 6a bb 7f 3f c5 64 80 3f
       0.99957806 0.9992213 0.99895346 1.0030752
000040 43 36 80 3f 46 33 7f 3f 82 17 7f 3f a8 e6 7f 3f
       1.0016559 0.9968761 0.99645245 0.9996133
000050 79 20 80 3f 22 2c 80 3f 67 ea 7f 3f 36 1c 80 3f
       1.000991 1.0013468 0.99967045 1.0008609
000060 f8 09 80 3f 23 c0 7f 3f e2 2e 80 3f b7 43 7f 3f
       1.0003042 0.9990255 1.0014307 0.997127
000070 c0 b7 7e 3f 28 60 7f 3f 54 42 80 3f 8e 01 80 3f
       0.9949913 0.997561 1.0020242 1.0000474
000080 49 0b 81 3f 07 ab 80 3f b6 27 80 3f c1 90 7e 3f
       1.0081569 1.0052193 1.0012119 0.99439627
000090 8a cd 7f 3f de b6 7f 3f 07 e6 7f 3f bf fe 7f 3f
       0.99923 0.9988841 0.9996037 0.99998087
0000a0 0a 28 83 3f e5 ef 7f 3f ed 8b 7f 3f e0 5d 80 3f
       1.0246594 0.99975425 0.99822885 1.0028648
0000b0 91 d2 7f 3f 77 05 80 3f f0 f7 7f 3f ac 2a 7f 3f
       0.99930674 1.0001668 0.999877 0.9967449
0000c0 3a 56 7f 3f 8e 5f 7f 3f e2 f9 7f 3f 1f f5 7f 3f
       0.99740946 0.9975518 0.99990666 0.999834
0000d0 c3 8d 7f 3f 00 00 80 3f 8e 35 7f 3f 5a a1 7f 3f
       0.99825686 1.0 0.9969109 0.9985558
0000e0 e1 11 80 3f 8c 1e 80 3f 84 59 7f 3f 69 fe 7f 3f
       1.0005456 1.0009322 0.99745965 0.99997574
0000f0 a9 2c 7f 3f 04 b5 7e 3f 55 f3 7f 3f 4f 46 7e 3f
       0.9967752 0.9949496 0.9998067 0.9932603
000100 3c fe 7f 3f f3 26 80 3f 8b 8e 7f 3f 84 be 7f 3f
       0.99997306 1.0011886 0.9982688 0.9990008
000110 68 f9 7f 3f 0e e4 7f 3f 6f 63 80 3f 89 02 7f 3f
       0.9998994 0.9995736 1.0030345 0.99613243
000120 1b 22 80 3f 0c 74 7f 3f 7d 13 80 3f 79 7c 7f 3f
       1.0010408 0.9978645 1.0005947 0.99799305
000130 52 d8 7f 3f a4 36 7f 3f 56 be 7e 3f de f4 7f 3f
       0.99939454 0.9969275 0.9950918 0.9998301
000140 b4 fa 7e 3f 72 9f 7f 3f 00 00 80 3f e1 ec 80 3f
       0.9960129 0.9985267 1.0 1.007229
000150 de 22 80 3f 3b ff 7f 3f 84 ee 7f 3f 0d f8 7f 3f
       1.0010641 0.99998826 0.9997332 0.9998787
000160 e4 e6 7f 3f 83 86 7f 3f af 29 80 3f a8 19 80 3f
       0.99961686 0.99814624 1.0012721 1.000783
000170 d1 a7 7f 3f 5e 16 7f 3f b4 bd 81 3f 1c df 7f 3f
       0.9986544 0.99643505 1.0136018 0.9994981
000180 04 26 80 3f 37 95 80 3f df fe 7f 3f 1a 2b 80 3f
       1.0011601 1.0045537 0.9999828 1.0013154
000190 76 d7 7f 3f 20 f4 7f 3f 00 00 80 3f d3 4b 80 3f
       0.9993814 0.9998188 1.0 1.002314
0001a0 f0 87 7f 3f 48 13 80 3f b2 e6 7f 3f 8b 3e 7f 3f
       0.998168 1.0005884 0.9996139 0.9970481
0001b0 81 ff 7f 3f 1e 6c 7f 3f ca 2b 80 3f 80 53 7f 3f
       0.99999243 0.9977435 1.0013363 0.99736786
0001c0 ec 28 7f 3f f2 5d 80 3f c7 1e 7f 3f 48 fb 7f 3f
       0.99671817 1.002867 0.9965634 0.999928
0001d0 ea ff 7f 3f 79 f7 7f 3f b9 91 80 3f 66 8e 80 3f
       0.9999987 0.9998699 1.0044471 1.0043457
0001e0 66 36 80 3f 1f bb 7f 3f 37 5d 80 3f 58 60 80 3f
       1.0016601 0.998949 1.0028447 1.0029402
0001f0 71 eb 7f 3f c3 f8 7f 3f b5 49 7f 3f 76 ff 7f 3f
       0.9996863 0.99988955 0.99721843 0.9999918
000200 a0 e8 7f 3f a7 b1 7f 3f f1 d1 7f 3f 40 94 7f 3f
       0.9996433 0.9988045 0.9992972 0.99835587
000210 5b 09 80 3f e9 63 80 3f 3c 6f 7f 3f 7d 48 7f 3f
       1.0002855 1.003049 0.99779105 0.99719983
000220 00 ee 7e 3f 3a d4 7e 3f 32 65 7f 3f 39 35 7e 3f
       0.9958191 0.9954258 0.99763787 0.9929996
000230 44 04 7f 3f cf 36 81 3f 9f 1c 7f 3f d9 e5 7e 3f
       0.99615884 1.0094851 0.9965305 0.9956947
000240 67 f6 7f 3f 25 9a 7f 3f ec 9f 7f 3f a5 4f 7f 3f
       0.99985355 0.9984458 0.99853396 0.997309
000250 09 77 7f 3f be fd 7f 3f 7a 9b 7f 3f c6 01 80 3f
       0.9979101 0.99996555 0.99846613 1.0000541
000260 b7 02 81 3f ae b5 7f 3f a0 f8 7f 3f 87 93 7f 3f
       1.0078954 0.99886596 0.99988747 0.99834484
000270 5b 02 7f 3f fc 3f 80 3f 95 c8 80 3f 66 7a 7e 3f
       0.9961297 1.0019526 1.0061213 0.99405515
000280 b6 01 80 3f f6 ff 7f 3f 13 8e 7f 3f 46 ec 80 3f
       1.0000522 0.9999994 0.99826163 1.0072105
000290 d9 ce 7e 3f f0 6e 7f 3f 90 ee 7f 3f fd cc 7f 3f
       0.99534374 0.9977865 0.9997339 0.9992216
0002a0 f2 0d 80 3f f3 f2 7f 3f 83 8c 7f 3f 52 ff 7f 3f
       1.0004256 0.99980086 0.9982378 0.9999896
0002b0 6c 6d 82 3f ed 56 80 3f e3 fe 7f 3f ed c5 7f 3f
       1.0189643 1.0026528 0.999983 0.99911386
0002c0 6d 84 7f 3f 04 11 80 3f a3 2c 80 3f d6 fb 7f 3f
       0.9981144 1.0005193 1.0013622 0.99993646
0002d0 99 27 80 3f f4 de 7f 3f c7 12 80 3f b5 fd 7e 3f
       1.0012084 0.99949574 1.000573 0.99605876
0002e0 e3 ff 7f 3f f0 c5 7e 3f 47 32 7f 3f b1 79 7f 3f
       0.9999983 0.9952078 0.9968609 0.9979506
0002f0 4c 11 80 3f 5f ec 7f 3f a9 8a 80 3f 6c ea 7f 3f
       1.0005279 0.9997005 1.0042316 0.99967074
000300 6f 37 80 3f 7f fe 7f 3f d9 7e 80 3f be 01 80 3f
       1.0016917 0.99997705 1.0038711 1.0000532
000310 75 bb 7f 3f b0 08 80 3f 2c f2 7f 3f 72 45 80 3f
       0.9989541 1.0002651 0.999789 1.0021193
000320 27 ab 80 3f 00 00 80 3f 13 37 80 3f 8b 17 80 3f
       1.0052232 1.0 1.0016807 1.0007185
000330 0b f9 7f 3f 4f fb 7f 3f d5 a9 7f 3f 1c 57 7f 3f
       0.99989384 0.9999284 0.9986852 0.99742293
000340 d9 74 80 3f e7 0d 7f 3f 9a df 80 3f 53 81 81 3f
       1.0035659 0.9963059 1.0068238 1.0117592
000350 f5 d3 7f 3f c0 78 7f 3f 17 59 7f 3f ef ad 7f 3f
       0.99932796 0.99793625 0.99745315 0.99874777
000360 5d 87 7f 3f 00 00 80 3f f4 c9 7e 3f 94 f1 7f 3f
       0.9981592 1.0 0.99526906 0.99977994
000370 7b 7d 80 3f ad f8 7f 3f 11 46 80 3f 8b dc 7f 3f
       1.0038294 0.99988824 1.0021383 0.99945897
000380 58 68 7f 3f ac 6c 7f 3f 5e 14 80 3f 50 ab 7f 3f
       0.9976859 0.99775195 1.0006216 0.9987078
000390 21 ea 7f 3f fb 0b 80 3f 8f d4 80 3f 7c e7 7f 3f
       0.9996663 1.0003656 1.0064868 0.9996259
0003a0 9a 6b 80 3f 30 84 80 3f c5 9f 80 3f 9d f6 7f 3f
       1.0032837 1.004034 1.0048758 0.99985677
0003b0 92 3d 80 3f 91 89 7f 3f 6d 12 7f 3f e9 f2 7f 3f
       1.001879 0.99819285 0.9963749 0.99980026
0003c0 87 96 7f 3f 70 ef 7f 3f d1 44 7f 3f 84 30 80 3f
       0.9983906 0.9997473 0.9971438 1.0014806
0003d0 cb 77 80 3f 87 16 80 3f 69 55 7f 3f 5c 0f 7f 3f
       1.0036558 1.0006875 0.997397 0.9963281
0003e0 65 24 7f 3f b3 68 80 3f 16 6c 7f 3f 4c 79 7f 3f
       0.9966491 1.0031952 0.997743 0.9979446
0003f0 3f 2b 7f 3f 68 f9 7f 3f 80 4c 7f 3f b7 f0 7f 3f
       0.99675363 0.9998994 0.99726105 0.99976677

b1.bias f4 [256]
000000 45 2a b8 3a f6 b1 45 3b 16 c6 2a bb 48 a2 bf ba
       0.0014050683 0.0030165887 -0.002605801 -0.0014620507
000010 ef f1 5d 3b be 74 bd bb 53 4b 87 3b 91 60 83 bb
       0.0033866127 -0.005781739 0.0041288524 -0.0040093143
000020 7a fc 4f bc 2f a8 15 bb b6 7e 49 bb d7 fd 84 3a
       -0.012694472 -0.002283584 -0.0030745692 0.0010146451
000030 7a e9 9f 39 43 6c 8d 3b 7e b7 3f 3b 6c 20 91 bb
       0.00030500797 0.0043158843 0.0029253657 -0.004428914
000040 ae 5d 72 bb f0 e4 78 b8 e3 15 4e 3a 3f f3 23 3c
       -0.0036982107 -5.9341022e-05 0.0007861538 0.010006725
000050 f1 4c 7c bb ed 99 eb 3a 0e e2 00 3c 2b 59 1c bb
       -0.003849801 0.0017974951 0.007866396 -0.002385686
000060 ab a6 0a 3b a3 6a eb 3a 26 15 dc bb 5b 20 02 3b
       0.002115647 0.0017960857 -0.0067163883 0.001985571
000070 a9 85 a1 bb 81 45 9c bb aa c0 22 bc fc 58 ec ba
       -0.0049292636 -0.0047690277 -0.00993363 -0.001803189
000080 dc fe 75 bb 85 dc d1 3b a6 84 93 bb 2b 66 25 3b
       -0.0037535941 0.006404462 -0.004501897 0.0025237899
000090 2d 3e 8b bb 0a 16 17 bb 14 3e 4a 3b d8 db 19 bc
       -0.0042493553 -0.0023053908 0.0030859755 -0.009390794
0000a0 fa b1 89 3b c9 9c 4e 3b 8f bc 06 bb 9b 63 b6 3b
       0.0042021247 0.0031526557 -0.0020559167 0.005566073
0000b0 57 3c e7 3b 73 37 aa 3b 92 04 29 bb a2 53 d5 38
       0.0070567536 0.0051945983 -0.0025790078 0.00010172209
0000c0 85 d4 55 3a 71 e3 0f 3b 47 6c ab bb 03 f8 c6 bb
       0.0008156973 0.0021955634 -0.0052314135 -0.006072046
0000d0 99 c1 82 bb ed 52 6a bb 4b 93 95 ba b5 d7 12 bb
       -0.003990364 -0.0035754994 -0.0011411695 -0.0022406403
0000e0 23 46 4a bb d4 72 1e bc 4f ef ae bb a5 42 5c b9
       -0.0030864559 -0.009670932 -0.0053385864 -0.00021005662
0000f0 64 b0 7b b8 c2 72 c0 3b 95 f8 0c 3c 48 34 03 3c
       -6.000734e-05 0.005873055 0.008604188 0.00800807
000100 93 b7 db bb ef ea e7 bb 0a fa 6d ba 12 9c 5c 3b
       -0.0067052334 -0.007077567 -0.0009078091 0.003366236
000110 2e 50 f5 3b 70 f0 14 bb fc 2e 0b bc 94 a2 3e 3a
       0.007486365 -0.002272632 -0.008495089 0.0007272151
000120 4f d2 6e bb 5f 49 14 bb 89 95 34 ba 59 45 65 3b
       -0.0036441272 -0.002262674 -0.00068887376 0.0034983961
000130 a7 9b 40 3b 8b e9 a3 bb 77 d2 2c ba 99 20 7f ba
       0.002938965 -0.0050022057 -0.0006592641 -0.00097323355
000140 80 f7 16 bb 18 e6 1c bc 32 03 43 bc df ec 71 3a
       -0.0023035705 -0.009576343 -0.011902617 0.0009228717
000150 f3 60 79 bc 81 a9 3e bc f3 bb 1f bb 69 e6 d0 3b
       -0.015220868 -0.011637093 -0.00243735 0.0063751233
000160 9e 1b 8d 3b d4 03 0e bc 3c 4a fb b9 ff 32 45 bc
       0.0043062707 -0.008667905 -0.0004792976 -0.012036084
000170 6e 60 07 bc 44 76 74 3a 4f f1 c5 bb c9 30 68 bb
       -0.008262737 0.0009325484 -0.006040729 -0.003542947
000180 24 ba d8 39 94 90 a1 bb 2c 2c bb 3a 2e 7f bf ba
       0.00041337416 -0.004930565 0.0014280132 -0.0014610046
000190 24 42 8a bb 65 90 d7 bb 0c 5a e0 3b 6f dd 61 bc
       -0.0042193104 -0.0065784925 0.006846672 -0.013785704
0001a0 ba 76 03 bc 38 e4 c2 3a 8a fb d6 3a e2 32 87 ba
       -0.008023912 0.001486904 0.0016401869 -0.0010314847
0001b0 ba dd 98 bb d5 ad 05 3b 93 eb e1 bb 05 e1 47 3b
       -0.0046651037 0.0020397801 -0.0068945377 0.0030499112
0001c0 e8 ec 7c 3a 35 86 17 3b aa b6 73 3b c1 e7 a0 3b
       0.0009648339 0.0023120765 0.0037187734 0.0049104397
0001d0 b1 d8 e7 3a d3 ab a1 ba 44 15 41 bc 42 a3 f9 39
       0.001768848 -0.0012334533 -0.011784855 0.00047614618
0001e0 cd 9b 1b bc 52 bf 1d bc 28 54 26 bc 4b dc 88 3b
       -0.009497595 -0.009628134 -0.0101519 0.0041766516
0001f0 a5 8c 1a 3c 4e 3f 3e 3b d1 1b 8b ba f5 7c 23 bc
       0.009432946 0.0029029432 -0.0010613148 -0.009978523
000200 bd ae 39 bb 09 00 38 bc bf 43 80 bb 8b 18 23 3a
       -0.0028332912 -0.011230477 -0.003914326 0.0006221614
000210 1e 18 1d bc 9b 38 03 3a f5 c2 06 bb 61 72 3c 3b
       -0.0095882695 0.0005005688 -0.002056298 0.0028754699
000220 5b 42 cc 3b 9f 5f 35 bb 5e 9c 11 3a 9d 01 1a 3c
       0.006233496 -0.0027675403 0.00055546116 0.009399799
000230 ac 18 80 3a f0 23 03 bc 6a 74 43 3b 52 30 83 b9
       0.0009772978 -0.008004174 0.0029824027 -0.00025022269
000240 15 9d 0d 3c ae d2 91 ba 0a 43 f6 b9 c1 86 8e bb
       0.008643408 -0.001112541 -0.00046970724 -0.00434956
000250 46 5f ec b9 b3 f7 8c 3b 17 ea 92 b9 da 98 d8 bb
       -0.00045084412 0.004301989 -0.000280217 -0.006610018
000260 68 a1 53 3a 3a df 66 ba 76 e3 2b bb 48 31 b9 3b
       0.00080730626 -0.0008807067 -0.0026228107 0.0056516267
000270 46 34 11 3c f6 9c 38 bc fe 68 23 bc f8 00 33 3c
       0.008862561 -0.011267891 -0.009973763 0.010925524
000280 51 d0 7c 3a 7e ad c5 bb 71 26 f2 bb 74 58 78 bc
       0.00096440787 -0.006032645 -0.0073898365 -0.015157808
000290 4b 8b 29 3b 04 3e 78 3a 0a 61 e0 ba 78 61 50 3b
       0.0025870379 0.000946969 -0.0017118764 0.0031796377
0002a0 90 03 24 bc 7e 06 21 3b 52 e1 67 3a d6 6e 0c 3c
       -0.010010615 0.002457052 0.0008845526 0.008571347
0002b0 49 17 8f bb b9 2f d2 bb bc c9 51 3a ec 2a 04 bc
       -0.0043667895 -0.0064143804 0.0008002778 -0.008066874
0002c0 96 ad ee bb ea 22 bd bb 62 dd 10 bc 3a 2d f2 bb
       -0.0072838767 -0.0057719843 -0.008841844 -0.0073906453
0002d0 13 b0 cf b9 5b 69 cf bb 6f 6c df 3b dd e4 43 bb
       -0.00039613302 -0.006329698 0.006818346 -0.0029891052
0002e0 db 17 42 bc 2d 17 ef ba c2 d1 5e bb b8 fb 6f 3b
       -0.011846508 -0.001824116 -0.0033999537 0.0036618542
0002f0 f9 57 51 39 4f 3a 16 bc 0b fa aa b7 2e 70 52 bb
       0.00019964566 -0.009169175 -2.0382015e-05 -0.0032110321
000300 89 32 c9 bb af 2b c3 bb 16 2d 1e bc c2 e8 b0 3b
       -0.0061400575 -0.005956135 -0.009654304 0.0053988406
000310 ea 13 eb bb 71 0b b4 bb 04 5e 5e 3b 21 09 18 bc
       -0.007174005 -0.005494528 0.003393055 -0.00927952
000320 62 23 08 3b 9d 8e 55 3b 93 cd 8d ba 57 bd 01 bc
       0.0020773043 0.0032586225 -0.0010818712 -0.007918677
000330 d0 f0 aa 39 ef 1f a7 3b 4f 6d bc bb cb 0c 74 bc
       0.00032604346 0.0051002423 -0.0057503353 -0.014895628
000340 32 ba 73 bc 4b 7e b8 3a a8 37 bd bb 68 fb a2 b8
       -0.014875935 0.0014075724 -0.005774457 -7.77159e-05
000350 57 c8 d1 bb 10 6b af 3b 7b 34 9f bb 6d 58 59 bb
       -0.006402056 0.005353339 -0.004858551 -0.0033164278
000360 c1 fc 98 bb 63 57 4e 3c ca 2a ea 3a dd 2c 3f 3c
       -0.0046688025 0.012594077 0.0017865535 0.011668411
000370 6a ed 66 bc 69 37 6d 3a 39 fa 7a 3b 20 d7 ce bb
       -0.01409469 0.0009049089 0.0038296117 -0.006312266
000380 7d 0d c5 ba 2e 48 ac bb 8d ba fa bb 3a fe de 39
       -0.0015033927 -0.005257628 -0.007651633 0.00042532553
000390 f5 71 c3 b9 3f eb fa bb 56 fe 8d 3b a2 7c 0b 3c
       -0.00037278203 -0.007657438 0.0043332977 0.0085136015
0003a0 37 c0 39 bb b3 db 52 bb fd 4e a2 ba fa 4a 29 bb
       -0.0028343329 -0.0032174408 -0.001238316 -0.0025832043
0003b0 94 b0 8a bb 47 8e 88 3a a4 bf 74 3a 47 ac 9b b9
       -0.0042324755 0.0010418379 0.0009336418 -0.0002969226
0003c0 16 ce 99 3a d7 cd 07 3a a4 80 8e 3a 46 5f 03 bc
       0.0011734392 0.0005180514 0.0010872078 -0.00801832
0003d0 e8 5e 2d bb f5 53 a4 bb a2 16 6b 39 81 42 b6 3a
       -0.0026454274 -0.0050148913 0.00022419778 0.0013905318
0003e0 54 f8 89 3b d2 b8 dc ba 88 4c f2 ba 16 6a 35 b9
       0.004210511 -0.0016839749 -0.0018485943 -0.00017301025
0003f0 8d bf 85 b9 39 ea b6 ba 94 07 1f ba 75 b8 d8 3b
       -0.00025510453 -0.0013955302 -0.0006066498 0.006613786

b1.running_mean f4 [256]
000000 f8 cb c8 3e 6b f5 9d 3e 26 0d ad 40 a2 81 0f 3e
       0.39218116 0.30851302 5.407855 0.14014295
000010 1d 2e d7 39 36 6a 5f 40 b5 cf be 3f 04 00 00 00
       0.00041042353 3.4908576 1.4907137 6e-45
000020 81 6a 6a 3e ed 26 b1 3e 04 00 00 00 1d 1c 22 35
       0.2289219 0.3460001 6e-45 6.0390613e-07
000030 e6 12 73 40 5f de 0a 40 15 d2 07 40 2d 4c dc 3e
       3.7980285 2.1698225 2.1221974 0.43026868
000040 2b 01 a7 3e 73 b9 55 40 7f c6 dc 3f 08 a6 46 40
       0.3261808 3.339444 1.7248076 3.1038837
000050 fb e0 9c 3e 35 32 00 40 04 00 00 00 b7 aa ab 3e
       0.30640396 2.0030644 6e-45 0.33528683
000060 e4 59 03 40 52 ea 18 40 2b 53 80 3f e6 60 5e 40
       2.0523615 2.3893018 1.0025381 3.4746642
000070 17 55 87 3e c4 db 39 3f 52 ba 83 3f b1 4c 98 3f
       0.26432106 0.7260096 1.0291235 1.1898404
000080 a4 61 b5 3e 79 f7 0b 3f af 79 87 3f a9 1d 22 41
       0.35426056 0.5467449 1.058401 10.132241
000090 04 00 00 00 87 5a c8 3e 04 00 00 00 10 33 dc 30
       6e-45 0.39131567 6e-45 1.602162e-09
0000a0 93 51 22 3f 04 00 00 00 e1 71 24 40 04 00 00 00
       0.6340572 6e-45 2.5694506 6e-45
0000b0 04 00 00 00 b6 b8 e2 3f 83 6f ee 3f 2a fc 3f 3e
       6e-45 1.7712619 1.8627781 0.18748537
0000c0 8c 9b bd 3e 4d 5e 3f 40 04 00 00 00 04 00 00 00
       0.37032735 2.9901307 6e-45 6e-45
0000d0 4e 5a 84 3e 00 00 00 00 2a e6 bf 3f eb 25 9a 33
       0.25850147 0.0 1.4992115 7.178081e-08
0000e0 6b 98 07 3e 7f f0 96 3e d3 bc fb 3e 1c 14 16 32
       0.13241737 0.2948036 0.491675 8.7357215e-09
0000f0 07 06 3a 40 08 56 6b 3f 90 7c 2f 34 53 40 d5 40
       2.9066179 0.9192815 1.634346e-07 6.664102
000100 04 00 00 00 ff 88 35 40 cc ae b3 3f 8f 77 fe 3f
       6e-45 2.8364866 1.4037719 1.9880236
000110 04 00 00 00 fe 41 a3 3e 04 00 00 00 c5 42 6e 3f
       6e-45 0.31886286 6e-45 0.9307063
000120 62 5a 61 3f 44 0f 8d 3e 08 79 13 3f 27 e5 f3 40
       0.8802854 0.2755071 0.57606554 7.6217227
000130 04 00 00 00 ba a6 f8 3e 3c 8f bd 3f 04 00 00 00
       6e-45 0.48564702 1.4809337 6e-45
000140 4b 4c c6 3e 39 a5 5d 3f 00 00 00 00 32 3f 91 3e
       0.38730082 0.86580235 0.0 0.28368527
000150 a6 df cf 3e 04 00 00 00 04 00 00 00 04 00 00 00
       0.40600318 6e-45 6e-45 6e-45
000160 19 a7 c6 33 dd 1c 03 3f fb 70 ad 3e fb f0 a7 3e
       9.2504884e-08 0.51215917 0.3387526 0.3280104
000170 04 00 00 00 fc 81 06 3e b1 b1 40 3d c7 09 07 3f
       6e-45 0.13135523 0.04704446 0.52749294
000180 d8 26 73 3f 3f be 42 3f 04 00 00 00 61 68 06 3f
       0.94981146 0.7607154 6e-45 0.5250302
000190 ea 08 c8 3f 6f 8d 83 3f 00 00 00 00 e0 78 e7 3e
       1.562772 1.0277537 0.0 0.45209408
0001a0 e1 8b 54 3f e6 9d b1 3f 04 00 00 00 b8 68 03 3e
       0.8302594 1.3876312 6e-45 0.12832916
0001b0 04 00 00 00 f1 16 cb 40 b3 85 31 3f 76 96 df 3f
       6e-45 6.3465505 0.69344634 1.7467792
0001c0 22 ed f6 3f 72 ca 8b 3e 04 00 00 00 09 ec 86 40
       1.9291117 0.2730289 6e-45 4.216313
0001d0 04 00 00 00 04 00 00 00 84 7a 03 3f 2e 2e f5 3e
       6e-45 6e-45 0.5135882 0.47886795
0001e0 04 c7 3e 3f e7 8a 7f 3f 12 f1 c3 3f 72 4c 07 3e
       0.74522424 0.99821323 1.5307944 0.13212755
0001f0 04 00 00 00 04 00 00 00 bc 20 3f 40 17 b1 8b 3f
       6e-45 6e-45 2.986373 1.0913419
000200 78 16 dc 33 cc d8 c6 3e c7 a1 71 3f ef 63 4d 40
       1.02486354e-07 0.38837278 0.9438748 3.2092245
000210 24 4d 3c 3e ce c4 e0 3e 8b 46 93 3e 90 f0 75 3f
       0.18388802 0.4390015 0.28764758 0.96070194
000220 52 e8 d6 3f ac ff 55 40 34 8e 0c 40 5a 5e 99 40
       1.6789649 3.34373 2.1961794 4.7927675
000230 83 e5 90 3f db 1f 1d 3f 64 bd 3d 40 48 47 c0 3f
       1.1320041 0.6137673 2.9646845 1.5021753
000240 04 00 00 00 0c 5d 49 3f ec f7 70 3f 08 98 2a 40
       6e-45 0.78657603 0.941283 2.6655293
000250 34 19 04 3f 99 6a 4b 33 69 dd 91 34 49 77 b8 3e
       0.51600957 4.736157e-08 2.7169452e-07 0.36028507
000260 6a 85 fc 3e 48 fa 90 3f 94 03 35 33 ce cc 28 40
       0.49320537 1.132638 4.21456e-08 2.6375003
000270 43 87 0c 3f 81 68 24 3e d6 c7 9f 3e 0a 6c 90 40
       0.54893893 0.1605549 0.3120715 4.5131884
000280 7e c7 9e 3f 6e 06 2b 30 50 46 1c 40 94 60 c0 3e
       1.240463 6.2218575e-10 2.4417915 0.37573683
000290 3c 43 09 40 0a 70 34 3e 2c 9b 3d 3f 59 be 0c 3f
       2.1447287 0.17620865 0.740649 0.5497795
0002a0 5f d1 b2 3f cf f4 29 40 f2 2e 27 3f 0d 70 54 30
       1.3970145 2.655567 0.6530601 7.7284384e-10
0002b0 72 b5 af 3e 03 91 48 40 04 00 00 00 b5 63 7e 3f
       0.3431812 3.1338508 6e-45 0.9937089
0002c0 61 d9 11 40 12 7c 60 40 c3 a9 49 3f 3e 9d b5 32
       2.2788928 3.5075727 0.7877466 2.1142679e-08
0002d0 a6 45 2f 3e 85 a2 9f 3e bd 89 a0 3f a9 fb a4 3f
       0.17116413 0.3117868 1.2542034 1.28893
0002e0 04 00 00 00 9f bd e0 3e f8 d4 a6 3f 95 0e 44 3f
       6e-45 0.4389467 1.3033743 0.7658475
0002f0 f0 28 e7 3f 08 8a ee 3f 2f a9 b8 3e 04 00 00 00
       1.8059368 1.8635874 0.36066577 6e-45
000300 af f9 37 3f ae 72 d3 3f c0 85 66 3d 99 d5 60 3e
       0.7186536 1.6519372 0.056279898 0.21956481
000310 18 89 cd 3f 9e b7 13 3f 04 00 00 00 1e b5 e9 3f
       1.6057463 0.5770205 6e-45 1.8258398
000320 04 00 00 00 c0 65 25 31 dc 63 a5 3f 44 19 52 3f
       6e-45 2.4068498e-09 1.29211 0.820698
000330 04 00 00 00 04 00 00 00 4d e5 22 3f 75 89 d6 3e
       6e-45 6e-45 0.63631135 0.41901746
000340 9b 39 47 3f 05 35 88 40 f6 25 9c 3e dc af ed 3f
       0.77822274 4.256472 0.30497712 1.8569293
000350 c9 96 21 37 06 00 42 40 bc bc 80 40 ec 9d a6 40
       9.631455e-06 3.0312514 4.023039 5.2067776
000360 79 2a 04 40 00 00 00 00 26 2f f3 3f b6 49 10 34
       2.0650923 0.0 1.8998764 1.3437861e-07
000370 c8 1b ad 3e 04 00 00 00 24 f2 61 3f 46 e0 50 3f
       0.33810258 6e-45 0.882601 0.81592214
000380 7b 82 eb 3e d7 8b 96 3f 94 a8 53 40 12 ec cc 32
       0.45997986 1.1761426 3.3071642 2.3856078e-08
000390 58 90 b9 3f 0a 83 1e 3f 37 4a 58 3f 66 e8 74 3e
       1.4497175 0.619187 0.8448824 0.23916778
0003a0 71 ae 9f 3f 68 e6 9b 3f b6 bb 07 3e ab 52 61 40
       1.247511 1.217969 0.132552 3.5206707
0003b0 9f 2a c3 3f 9e 4e 1b 3f 38 60 33 3f 04 00 00 00
       1.5247382 0.60666835 0.70068693 6e-45
0003c0 40 0c db 3f 04 00 00 00 6f e2 9f 3f f9 9c 0b 3f
       1.7113113 6e-45 1.2490977 0.54536396
0003d0 7a 02 69 40 17 ca 7c 40 f3 dc 4d 40 c4 0c a5 3f
       3.6407762 3.9498346 3.2166107 1.2894521
0003e0 08 de 2a 40 7e 9b 98 39 ce 2d f2 3f f5 11 77 3f
       2.6698017 0.0002910755 1.8920228 0.96511775
0003f0 65 b6 af 3f 5d 37 09 34 65 81 82 40 02 60 e3 33
       1.3727537 1.277926e-07 4.078295 1.0587975e-07

b1.running_var f4 [256]
000000 01 0e b8 3e ca 5c a3 3d cf c5 3a 41 8a a4 4c 3e
       0.35948184 0.079766825 11.673293 0.19984642
000010 eb 80 00 39 12 a5 6f 40 27 11 3e 3f 04 00 00 00
       0.00012255057 3.74445 0.7424492 6e-45
000020 88 82 d6 3d 89 9f 8e 3e 04 00 00 00 dc 77 a2 33
       0.104741156 0.2785609 6e-45 7.565515e-08
000030 91 fd ce 40 94 6b 19 40 91 dc 91 40 80 b7 f2 3e
       6.468453 2.397191 4.5581746 0.47405624
000040 d8 78 9d 3e 5c f3 d3 40 94 11 31 40 60 3f 91 40
       0.3075626 6.623457 2.766698 4.538986
000050 36 a0 17 3e de 36 6c 3f 04 00 00 00 bf d3 99 3e
       0.1480721 0.9227122 6e-45 0.30044362
000060 07 4f bf 3f fe e5 8c 40 dd 3e d6 3f 1a 22 87 40
       1.4945992 4.403075 1.6737934 4.222913
000070 96 f9 18 3f 58 13 b1 3f d8 3f d1 3f 5e 49 cd 3f
       0.5975584 1.3834028 1.6347609 1.6038015
000080 f6 81 1b 3e 97 d8 42 3e 85 84 da 3f 05 22 02 42
       0.15186295 0.19027935 1.7071692 32.533222
000090 04 00 00 00 aa a8 43 3e 04 00 00 00 45 72 fa 2b
       6e-45 0.19107309 6e-45 1.7795285e-12
0000a0 24 95 be 3d 04 00 00 00 18 a5 65 40 04 00 00 00
       0.0930579 6e-45 3.5882015 6e-45
0000b0 04 00 00 00 8f 27 96 3f 50 8b 4e 40 8e 19 b2 3d
       6e-45 1.1730822 3.227253 0.086962804
0000c0 f0 91 14 3f aa 55 98 40 04 00 00 00 04 00 00 00
       0.5803518 4.760457 6e-45 6e-45
0000d0 3c fa 8b 3e 04 00 00 00 25 1f 53 40 e1 62 9b 30
       0.2733935 6e-45 3.298776 1.1305837e-09
0000e0 06 b6 c0 3d e3 04 de 3e 8e 26 f1 3e 1d 9d 15 2e
       0.09409718 0.43363103 0.47099727 3.4018222e-11
0000f0 28 e4 84 40 e2 5b 0e 40 3a e4 14 31 d9 16 52 41
       4.152851 2.224358 2.1666566e-09 13.130578
000100 04 00 00 00 cc a2 b7 40 d9 33 da 3f f1 d5 1d 40
       6e-45 5.7386227 1.7047073 2.466183
000110 04 00 00 00 00 6f 2c 3e 04 00 00 00 49 13 bd 3f
       6e-45 0.16839218 6e-45 1.477151
000120 b4 d5 aa 3f 45 5a 90 3e 20 fc 73 3f e9 20 b8 41
       1.3346467 0.2819387 0.9530659 23.01607
000130 04 00 00 00 a1 f8 5f 3f a3 7e 3e 40 04 00 00 00
       6e-45 0.8748875 2.9764793 6e-45
000140 9b eb 85 3f 7f 12 b5 3f 04 00 00 00 80 68 88 3d
       1.0462526 1.414627 6e-45 0.06660557
000150 4d 75 8e 3f 04 00 00 00 04 00 00 00 04 00 00 00
       1.1129547 6e-45 6e-45 6e-45
000160 58 fd a5 30 63 3c bf 3f 3d 6d 13 3e 42 68 31 3f
       1.2077335e-09 1.4940304 0.1439714 0.6929971
000170 04 00 00 00 5f fb 83 3d e7 b2 39 3c 33 7b 90 3f
       6e-45 0.064444296 0.011334158 1.1287597
000180 f9 7b 62 3f e7 f6 01 3f 04 00 00 00 2d 5e 59 3e
       0.8847042 0.5076737 6e-45 0.21227331
000190 ca 24 a8 40 f2 5e 16 3f 04 00 00 00 dd b4 45 3f
       5.254491 0.58738625 6e-45 0.772291
0001a0 02 b3 b8 3f 5f 53 70 3f 04 00 00 00 c7 1f 05 3e
       1.4429629 0.93877214 6e-45 0.13000403
0001b0 04 00 00 00 a5 18 03 41 dd 11 81 3f 68 2b 15 40
       6e-45 8.193517 1.0083576 2.3307743
0001c0 e7 6a 5f 40 a6 84 f3 3d 04 00 00 00 60 50 68 40
       3.4908998 0.11890535 6e-45 3.6299057
0001d0 04 00 00 00 04 00 00 00 1e b4 b8 3f d9 5e e2 3d
       6e-45 6e-45 1.4429967 0.11053247
0001e0 f8 b6 8d 3f 49 36 1b 40 17 83 09 40 86 30 c1 3c
       1.1071463 2.4251883 2.148626 0.023582708
0001f0 04 00 00 00 04 00 00 00 00 fa 1c 40 b1 5d a4 40
       6e-45 6e-45 2.4527588 5.136437
000200 9e 46 7d 30 da 79 8b 3f 67 28 84 3f 1c 18 84 40
       9.2141217e-10 1.0896561 1.032483 4.127943
000210 e2 75 80 3e 7e 02 5d 3e 57 d5 8c 3e 67 6b ab 3f
       0.25089937 0.21582982 0.27506515 1.3392152
000220 cb 43 b5 3f 7d f9 bb 40 bb 4c a7 40 9e 68 2f 41
       1.4161314 5.874205 5.2281165 10.963041
000230 10 6c da 3f d4 ed 4d 3e b7 23 6a 40 49 4c 94 40
       1.7064228 0.20110255 3.6584299 4.634312
000240 04 00 00 00 7d de 9b 3f 42 31 09 3f 81 f4 f5 40
       6e-45 1.2177273 0.53590786 7.6860967
000250 49 60 7c 3e 92 21 ac 30 2c 79 e0 32 00 71 25 3f
       0.24646105 1.2524188e-09 2.6132135e-08 0.6462555
000260 b4 a0 d8 3d e5 a6 96 3f 35 75 5c 2f e5 60 5a 40
       0.10577527 1.1769682 2.0050524e-10 3.412164
000270 a8 44 ed 3e f0 e8 81 3e e6 a1 e0 3e 34 de 25 41
       0.46341443 0.2537303 0.4387352 10.366749
000280 02 ff 59 3f ee 13 97 2a a2 bf 94 40 63 fd 05 3f
       0.85154736 2.6836817e-13 4.6483927 0.5233976
000290 f7 27 44 40 ad 28 78 3d 9e dd 0a 3f af 29 8a 3e
       3.0649393 0.060585666 0.5424441 0.26984927
0002a0 49 54 b5 3f c3 d2 13 40 88 38 eb 3e e9 19 e9 2a
       1.4166347 2.3097389 0.45941567 4.1407093e-13
0002b0 34 a9 ac 3d ce 21 f1 3f 04 00 00 00 1b 1f 00 40
       0.084307104 1.8838441 6e-45 2.0018985
0002c0 88 75 b6 40 45 da ed 40 8e c6 22 3f 81 5d aa 2f
       5.701847 7.432894 0.6358422 3.0989258e-10
0002d0 c5 23 d3 3d bb ad df 3e 48 da 0a 3f 9c 12 8e 40
       0.10309557 0.43687233 0.5423932 4.4397717
0002e0 04 00 00 00 78 4e e8 3e c7 14 8c 3f 5d 24 91 3f
       6e-45 0.45372367 1.0943841 1.1339222
0002f0 98 87 ad 3f 06 b5 64 40 a2 38 81 3e 04 00 00 00
       1.3557005 3.5735488 0.2523852 6e-45
000300 ed f2 84 3f ab b5 4f 40 dd a2 9a 3c 38 0d 86 3d
       1.0386635 3.2454631 0.018876487 0.0654549
000310 88 5c 2f 40 eb d4 45 3f 04 00 00 00 52 48 97 3f
       2.7400227 0.7727801 6e-45 1.1818945
000320 04 00 00 00 87 56 7e 2b f5 2b 3d 40 96 0c 77 3f
       6e-45 9.035901e-13 2.955808 0.9650358
000330 04 00 00 00 04 00 00 00 2f 64 3f 3f 92 2b 41 3f
       6e-45 6e-45 0.74762243 0.7545711
000340 45 8d e1 3f 91 5b f8 40 8c 80 29 3e 53 4a cd 3e
       1.7621237 7.7611775 0.16552943 0.40095767
000350 3a d3 06 35 93 b9 d4 40 d6 36 0f 41 ff 33 fd 40
       5.0226265e-07 6.647653 8.950888 7.912597
000360 ff 3c 79 40 04 00 00 00 bf 14 fa 3f e7 67 16 31
       3.894348 6e-45 1.9537581 2.1886934e-09
000370 9f e3 08 3f 04 00 00 00 d8 32 90 3f f2 8b b8 3f
       0.5347232 6e-45 1.1265516 1.4417708
000380 bc 9f 83 3f e9 ed 1f 40 77 f1 da 40 30 35 c3 2e
       1.0283122 2.498896 6.8419757 8.877021e-11
000390 79 32 f9 3f 64 a2 4c 3f ff 43 72 3e c6 d2 91 3d
       1.9468528 0.7993529 0.23658751 0.0712028
0003a0 40 f6 b5 3e ba f0 13 3f 75 2f 35 3d 9b db da 40
       0.35539436 0.57789195 0.04423471 6.8393073
0003b0 6d 6f b2 3f 1f f1 97 3f e7 27 a1 3f 04 00 00 00
       1.3940254 1.1870459 1.2590302 6e-45
0003c0 89 6b 0e 40 04 00 00 00 3f 33 23 40 f7 de a8 3f
       2.2253134 6e-45 2.5500028 1.3193043
0003d0 da c3 cb 40 b6 45 dd 40 ea f0 d0 40 bb 94 9a 3f
       6.3676577 6.9147596 6.5294085 1.2076639
0003e0 e7 71 1e 40 43 11 25 38 f7 64 42 40 7e a6 70 40
       2.475702 3.935514e-05 3.0374124 3.7601619
0003f0 ca 3a 67 40 c1 a8 8c 30 34 0d c6 40 df e9 84 30
       3.6129632 1.0234303e-09 6.1891117 9.670734e-10

fc2.weight f4 [64, 256]
000000 24 cd 5b 3a 62 7c 18 bd 67 e4 aa bc 0e 59 d7 bc
       0.00083847553 -0.037227996 -0.020860864 -0.026287582
000010 f4 f3 de 3c 6d ac 89 bd 0c 2c 5b 3c f4 d1 ae bc
       0.027215935 -0.06722341 0.013377201 -0.021340348
000020 6e 53 7f bd d8 54 36 3d 3b 5b 48 3b da d0 b5 3b
       -0.062335424 0.044514507 0.0030571956 0.0055485787
000030 e4 3c a2 3c 32 f4 56 3d fd 40 87 3c f8 3a 23 bd
       0.019804426 0.052478977 0.016510481 -0.03985116
000040 d3 39 af 3c 79 f5 71 3d 74 54 1d bd 93 7f 7e 3d
       0.021389877 0.05907199 -0.03841062 0.062133383
000050 fb dd 14 bd ac a4 39 bd 90 21 82 3c b1 ae 38 3b
       -0.03634451 -0.04532306 0.015885144 0.0028180296
000060 32 40 89 bc d7 67 a4 bb dc 41 16 bc bc 29 04 bb
       -0.016754244 -0.0050172615 -0.009170976 -0.0020166477
000070 1a b1 76 bd d9 bc 60 3c cf 1e 3d bd b9 5e 44 bd
       -0.06022749 0.0137169 -0.04617196 -0.047941897
000080 1e c5 74 bd 7b 02 61 bc df b6 04 3c e4 e9 88 3c
       -0.059758298 -0.013733502 0.0081002405 0.01671309
000090 bb 13 03 3d b5 90 fc bc 06 86 2d bd 96 ab 73 bd
       0.03200124 -0.03083072 -0.042364143 -0.05948981
0000a0 65 82 38 3d 46 79 f3 3b 9a 6e 75 3c 78 01 ef bb
       0.04504623 0.0074302284 0.014979983 -0.0072938763
0000b0 a4 ed 2a bc 28 44 03 bd 1d 8d f7 bc 5b f6 cc bc
       -0.0104326345 -0.03204742 -0.030218655 -0.025019815
0000c0 f6 68 e1 3c 3e 58 64 3d 2d 67 6a bd 20 7e 0f 3c
       0.02751587 0.055748217 -0.057227302 0.008758098
0000d0 97 ed 49 bd ef 89 1e bd b1 74 75 bd c2 09 8f 3c
       -0.04929885 -0.038705762 -0.05992574 0.017460708
0000e0 e0 ac 79 3d d2 9a 17 bd ef 12 39 3c f7 30 22 3d
       0.060955882 -0.037012883 0.011296018 0.039597478
0000f0 c6 ef 08 3c 4e 2c 3a 3d f8 27 26 3d 6a 78 39 bd
       0.008357948 0.04545241 0.04056546 -0.04528085
000100 b8 5a 74 bc fc a9 22 3d 41 fe 2d bd 04 a4 85 3d
       -0.014914207 0.03971289 -0.042478804 0.06525424
000110 5f 18 ca 3c 29 b0 be bc c9 a1 cd 3c 67 28 54 3d
       0.024669824 -0.02327736 0.02510156 0.051796343
000120 48 2b 93 bc 24 af 0e 3c 66 d9 95 bd 07 34 3b 3d
       -0.017964974 0.008708749 -0.07316856 0.045703914
000130 b0 b1 7b bd 44 a8 a6 3c eb 41 f2 3c 36 ef 41 bc
       -0.061448753 0.020343907 0.029572448 -0.0118368175
000140 e5 1a 0c 3d 22 43 17 3d b9 2a c6 3c f7 c4 05 bd
       0.034205336 0.036929257 0.024190294 -0.032658543
000150 ed 87 0a bb aa 52 1e 3d e1 be af bc 22 2a 2a 3d
       -0.0021138147 0.038653053 -0.021453323 0.041544087
000160 76 0b 02 3d bc bf 62 3c 30 f2 8d bd 02 80 ea 3c
       0.03174921 0.013839658 -0.06930959 0.028625492
000170 ea 16 10 bd be 8b 7e 3d 62 ec 08 3a 2e d9 dc bc
       -0.035178103 0.062144987 0.0005223212 -0.026959028
000180 d2 d2 6c 3d ba a0 2c bd d3 b8 9f 3c f0 43 17 3d
       0.05781824 -0.04214547 0.01949731 0.036930025
000190 5c 9f 21 bd 86 bf 66 bc 8a c1 6b 3d fc 81 e8 bc
       -0.039458618 -0.014083749 0.05755762 -0.028382294
0001a0 33 41 70 bd 06 9b a5 3c 8e 68 2a bd a9 1d 0e 3d
       -0.05865593 0.020215522 -0.041603617 0.034696255
0001b0 74 2b 7e 3d a1 22 8c 3c fd 17 3f 3c 5c 27 8e bc
       0.06205316 0.017106356 0.011663434 -0.017352752
0001c0 e5 c8 8a bc 54 97 76 bd b5 aa 4d bd 77 01 83 3d
       -0.016941497 -0.06020291 -0.050211627 0.06396764
0001d0 15 6c d3 bc c1 aa d8 bc b0 bf 00 bd 82 ab ff ba
       -0.025808373 -0.02644861 -0.031432807 -0.0019506069
0001e0 01 48 4b bd 7c 54 71 bd ff 5e c6 3c 12 79 58 bc
       -0.049629215 -0.05891846 0.02421522 -0.013212459
0001f0 c3 9f 00 3d bb 0e 2e bd cf 57 31 bd eb 07 a9 3c
       0.03140236 -0.042494517 -0.04329663 0.020633658
000200 e5 74 81 3d d9 f2 8e bd 17 1e f1 3c ec 81 fd bc
       0.06321124 -0.06979913 0.029433293 -0.03094574
000210 1c 48 0a 3d ff 1b 8b bd d3 48 a3 37 b6 0a 34 3d
       0.033760175 -0.06792449 1.9465026e-05 0.043955527
000220 b2 0a 4b bd 2a 57 4e 3d f1 41 32 bd bd e7 12 bd
       -0.049570747 0.050376095 -0.043519918 -0.035865534
000230 07 0d 0f bd e1 26 88 bd 9b 25 e8 bc 2d 54 48 bd
       -0.034924533 -0.066480406 -0.028338244 -0.0489084
000240 1f 7e b3 3c cb 86 a0 3c 15 51 90 3a 4e fe a2 3c
       0.021910725 0.019595524 0.0011010492 0.019896653
000250 d5 33 b1 bc 59 c5 6b 3d a2 17 7c bd ca d2 5a bb
       -0.02163116 0.057561252 -0.061545976 -0.00333898
000260 37 0f bf bc fb 8d d2 bc e3 c6 70 3d 62 72 e3 bc
       -0.023322685 -0.025702467 0.058783423 -0.027764503
000270 0c 99 16 bd bd d1 44 bc b1 14 b8 3b 74 bc 15 bd
       -0.03676705 -0.012012896 0.005617701 -0.036556676
000280 fd 6d 7f bd d7 0c 93 3c 4b 70 42 bd ce 70 bf 3b
       -0.062360752 0.017950458 -0.047470372 0.005842305
000290 4d 3c e5 3c db 34 21 bc 31 c1 70 bc 02 9f 2b 3d
       0.027982855 -0.009839262 -0.014694498 0.04189969
0002a0 08 14 dc bc 9a 24 d0 3c 3f 44 3c 3d 73 cc c1 3c
       -0.02686502 0.025408078 0.045963522 0.02365706
0002b0 ee 0f 37 bd fa ad 5e bb 14 1f 70 3c 43 48 97 bb
       -0.044692926 -0.003397821 0.014655847 -0.0046167686
0002c0 b9 db 1f bc fa ce 24 bd f3 04 f6 bc ba c8 6e bd
       -0.009756976 -0.04023645 -0.030031657 -0.058296897
0002d0 dc 90 37 bb 2e 28 83 bd 64 cb bf bc ac 5a 4f bd
       -0.0028009927 -0.06404148 -0.023412414 -0.05062358
0002e0 cf 0d 1a 3d f8 af 74 3d 09 d6 34 bc 7a 1f 55 3c
       0.037610825 0.05973813 -0.011037358 0.013007993
0002f0 37 90 3e 3d be 75 0f bd ac e9 50 3d cc 40 e0 bb
       0.046524253 -0.035024397 0.051004097 -0.006843662
000300 b7 32 57 3c 72 10 a5 3c 45 e9 4f 3d aa c8 65 3d
       0.01313465 0.020149443 0.050759573 0.05609957
000310 3b 59 c8 3c c3 f6 2f bd f9 eb 56 3d f2 0f 67 3d
       0.02445661 -0.04295994 0.052471135 0.05641169
000320 ba a5 e9 3c ee 01 11 bd 2c da d7 3b 0f 17 6f bc
       0.028521407 -0.03540223 0.0065872874 -0.0145929
000330 87 2e 06 3c c5 1b 9e 3c 74 40 43 bc 82 a6 52 3d
       0.008189804 0.01930035 -0.011917222 0.051428325
000340 98 0a ef bc 9b f1 11 3d 07 1a 9f 3c eb f4 9b 3d
       -0.029179856 0.035630804 0.01942159 0.07615074
000350 2e d1 1d bd a3 3c 5b bd 5a ea dc 3a cd 58 26 3d
       -0.038529567 -0.053524625 0.001685451 0.04061203
000360 b5 36 ac bc fc 8d 6b 3d be b2 4d 3c 45 b1 75 3c
       -0.02102218 0.057508454 0.0125548225 0.014995878
000370 9b 5a 93 bc 1c f7 63 bd ba e0 1a 3d 4e 67 87 bd
       -0.01798754 -0.055655584 0.037811972 -0.06611501
000380 50 19 0d 3d 9e 58 8e 3a d7 4e 56 bd a9 3a 42 3d
       0.034447968 0.001086015 -0.05232128 0.047419224
000390 fb b0 eb bc e0 5a e6 3c 3e 8f 9a 3d 6a f3 2e bd
       -0.028770914 0.028119504 0.075468525 -0.042712606
0003a0 a5 a7 3d bc 4c d7 0b 3d 2e dc 7d bb 4e c0 08 bd
       -0.011575614 0.03414087 -0.0038735974 -0.03338652
0003b0 df 86 bd 3c 3a aa 22 bd 26 4e a3 bc da 59 8d 3c
       0.0231356 -0.039713122 -0.019934725 0.017254759
0003c0 b7 72 9c 3c 12 6c 5c bd 3e 73 c6 bb c4 f9 53 3d
       0.019097669 -0.053814 -0.0060562184 0.051751867
0003d0 12 44 1c 3c 93 9a 2e 3d 33 11 5a bd ce 65 22 b8
       0.009537714 0.042627882 -0.05323906 -3.8718623e-05
0003e0 17 ef 66 3d c8 00 95 bc e0 a4 a1 ba 91 5f 85 bd
       0.056380358 -0.01818885 -0.0012332462 -0.065123685
0003f0 af 18 a1 3c 7f ef 62 3c d1 f2 33 3c b2 47 c7 3c
       0.01966509 0.013851046 0.010983185 0.02432618
