MITAI/1MIT/SUI/dicewars/ai/xholko02/model.pt (torch, 725493 bytes, 14 tensors)

fc1.weight f4 [256, 633]
000000 c0 4a 27 3d d2 d8 85 bc 60 bd f9 ba 04 14 80 3c
       0.04084277 -0.01633874 -0.001905363 0.015634544
000010 23 99 1e bc 42 f3 15 bc 10 91 1c 3d fa c3 48 3b
       -0.009680065 -0.009152235 0.03822428 0.003063439
000020 8f 3e d4 bc d3 a9 9a bc 4e 8d 33 3c cd ce 25 bc
       -0.025908737 -0.018879807 0.010958983 -0.010120106
000030 f7 72 16 bd 8b 8e ec 3b 3d 05 b8 3a 62 4d 78 bc
       -0.036730733 0.007219141 0.0014039647 -0.015155168
000040 61 fc f4 bb 09 bf 73 bc d7 83 09 bd 20 c0 8f bb
       -0.007476375 -0.014877089 -0.033572998 -0.0043869168
000050 10 71 10 bd a0 3c 0b 3d 5b f3 92 bb 5b e8 1a bc
       -0.035264075 0.033993363 -0.0044845766 -0.009454812
000060 a0 f4 a6 bc 8b ef 56 3c 0a cf 1a bd a4 8d d7 3c
       -0.020380318 0.013118635 -0.037795104 0.026312657
000070 b4 64 0a 3d d3 4f 07 3d e5 84 20 bd 4f d0 0c bd
       0.033787444 0.03303511 -0.039189238 -0.034378346
000080 f1 a9 72 3c 47 65 33 bd f4 2e 47 3c a1 ff 53 3c
       0.014811025 -0.043797757 0.012157191 0.012939365
000090 63 0f 91 bc 3e 20 86 bc c1 10 47 3c 49 c1 f9 3c
       -0.017707532 -0.016372796 0.012149991 0.030487673
0000a0 ce 5b db bc 50 da f6 bb 39 6e fe ba b5 29 01 bd
       -0.026777174 -0.007533349 -0.0019411511 -0.031533916
0000b0 3a 36 6e 3c 87 55 a5 bc 56 33 dd bc c7 2e 33 bc
       0.014539296 -0.020182384 -0.027002018 -0.010936446
0000c0 37 de 2b 3c 17 43 62 3c 4b f5 ec bc 64 fd 11 3d
       0.010489992 0.013809941 -0.028925559 0.035642043
0000d0 76 95 7e bc af d2 bb 3b 30 12 ef bc 48 73 94 bc
       -0.015538564 0.0057319026 -0.029183477 -0.018121377
0000e0 25 3d 87 3b af 57 1c 3d 7d 57 07 3d ab d4 eb bc
       0.004127162 0.03816956 0.03304242 -0.028787931
0000f0 5f 8f e1 3b de 1a 8f 3b 8c 16 05 bc 85 52 07 bb
       0.0068835462 0.0043672165 -0.008123051 -0.002064855
000100 e4 30 1b 3d c3 42 94 3c 03 49 14 bd 08 6f 10 bd
       0.037888423 0.01809824 -0.036202442 -0.035262138
000110 1d 08 99 bc 23 0b b3 bc 8d 3b ff bc 14 65 19 bd
       -0.018680627 -0.021855896 -0.031156326 -0.03744991
000120 6d d1 0d 3d 33 63 12 bd 9f 96 b7 3c 16 48 4b 3b
       0.034623552 -0.035739135 0.022410689 0.0031018308
000130 fe 61 ad b7 43 a2 e6 bc cc 9c d4 3c f4 cf c9 3c
       -2.0668838e-05 -0.028153544 0.025953673 0.024635293
000140 f2 1f ba ba a0 70 b6 bc d4 77 b0 bc af 45 a3 bc
       -0.0014200194 -0.0222705 -0.021541514 -0.019930689
000150 6a 0d ac 3b 96 7d ec 3c c1 d4 9a 3b 1c cf d8 3a
       0.0052506225 0.028868478 0.0047250693 0.0016541216
000160 db d0 07 3d f6 de 9a bc 2d 10 17 bd e3 69 bc bc
       0.033158164 -0.018905144 -0.03688066 -0.02299971
000170 67 33 d5 3c 64 7d 06 bc 2e 19 96 bb bf 12 9c bb
       0.026025487 -0.008208606 -0.0045806384 -0.004762977
000180 0d 1c 8c 3b 7a 7f f7 3c 55 be 52 3a bf 66 91 3c
       0.004275805 0.030212153 0.0008039226 0.017749188
000190 67 2e 0e bd 0e 92 1a 3d 6f ad e1 bc 67 1c b4 3c
       -0.03471222 0.037736945 -0.02754852 0.0219862
0001a0 e4 d7 9e bc fd 06 06 bd c9 fe d4 bc 13 b7 ae 3c
       -0.019390054 -0.03272151 -0.026000397 0.021327531
0001b0 4b 05 2d 3d 6a 43 0b 3d 0b 9b aa 3b ee 70 38 bb
       0.042241376 0.033999838 0.005206471 -0.0028143483
0001c0 65 0c 0b 3c e6 a1 d7 bc 28 47 04 3b 64 41 42 3c
       0.008486842 -0.026322316 0.0020184014 0.011856411
0001d0 29 3d 4a 3c 31 f1 d6 3c 82 89 b0 3b 1d ba fa bc
       0.012343683 0.026238056 0.005387486 -0.030606324
0001e0 74 db 20 3b c7 e0 57 bb ee 85 ba bc 6f d8 89 bb
       0.0024544867 -0.0032940374 -0.02276894 -0.004206709
0001f0 e8 9f 1a bd 72 ca 83 bc 05 03 23 bd 0a e5 8e 3c
       -0.037750155 -0.016087744 -0.0397978 0.017443199
000200 34 37 ae 3c c0 61 9e 3c 29 6f 69 bc 44 a9 e1 3c
       0.021266557 0.01933372 -0.014247694 0.027546532
000210 c4 f8 81 3c 34 af b4 3c 21 01 93 bc 51 7e 3b 3d
       0.015865691 0.0220562 -0.017944874 0.04577476
000220 34 dd af bc 08 a6 4d bd 93 d4 c6 3c 27 07 30 3d
       -0.021467783 -0.050207168 0.024271285 0.04297557
000230 6a b4 8a bc ab 5a 2d 3d 46 32 a2 3c 1c bc 28 3c
       -0.016931731 0.042322796 0.019799363 0.010298755
000240 6e 95 24 bc 7f 12 03 3d fd 36 83 3c 88 13 86 3c
       -0.010045392 0.03200006 0.016017431 0.016366735
000250 93 c8 eb 3c 8c 9f 8e 3a 1d ba 34 bc b4 0f 92 3c
       0.028782165 0.0010881289 -0.011030701 0.017829753
000260 ce ed d0 bc cf 3a 75 bc fe c1 18 3d fe ea 20 bc
       -0.02550402 -0.014967634 0.03729438 -0.0098216515
000270 1a 44 f0 3c ca 7e 35 bc af ac 89 3c ea 13 ed bc
       0.029329348 -0.011077592 0.016805975 -0.02894016
000280 37 87 19 bc d1 d2 05 bd 08 1d c2 3b a6 6d 3d bd
       -0.009370617 -0.032671753 0.005923871 -0.046247147
000290 a9 23 11 bd fa 21 16 bc 6c 28 68 3c a1 6a 74 3c
       -0.0354344 -0.009163374 0.014169794 0.014918
0002a0 76 fb 5e bb 1c 7e 28 3c 8a fa d1 3c ad 62 63 3c
       -0.0034024394 0.010283973 0.025632162 0.013878507
0002b0 c9 ac 56 3c a3 18 5d ba 89 4c 90 3c 33 89 07 3d
       0.013102719 -0.0008434152 0.01761462 0.033089828
0002c0 56 7a 23 3d d2 f0 a2 bc f4 6c 43 3c 2c 0c c0 3a
       0.03991159 -0.019890223 0.011927832 0.0014652065
0002d0 b4 a9 b1 bc 56 6c ba bc 35 7a 69 3b 7f 2d ab b8
       -0.021687366 -0.022756737 0.003562582 -8.16239e-05
0002e0 c6 c7 15 3d 48 e0 eb bb af 28 46 3b 27 ec 80 3c
       0.036567472 -0.0071983673 0.0030236652 0.015737606
0002f0 38 72 ad bb b0 d9 38 3b 9c 09 07 bc a6 a6 b6 bc
       -0.005293157 0.0028205924 -0.008242037 -0.022296261
000300 fc db af bb e7 cc 1c bd 68 de 2f bd 38 56 be bc
       -0.0053668004 -0.038281348 -0.042936713 -0.023234472
000310 b9 d7 e5 bb 69 4e e4 3b 0f fc 10 bd da 55 08 bd
       -0.0070142415 0.006967355 -0.03539663 -0.033285
000320 2e ed a4 3c ff a3 e9 3c f9 45 c8 3c 71 b6 88 bc
       0.020132627 0.028520582 0.024447428 -0.016688557
000330 5b f9 1f 3d 5f ad df bc 56 c1 9b bc e6 a9 c4 bb
       0.039056163 -0.02730435 -0.019013088 -0.006001699
000340 72 92 cc 3c cf 98 0a bb 60 38 86 bc 8d 0a 2b bd
       0.024972174 -0.002114821 -0.016384304 -0.04175811
000350 a2 21 32 bd a5 e2 11 bd 8d 90 81 bc c7 f4 5e 3c
       -0.043489106 -0.035616536 -0.015815997 0.013608164
000360 b6 1f c6 bc 29 82 61 bc d1 d4 3e 3d 58 95 90 ba
       -0.024185043 -0.013763943 0.046589676 -0.0011030836
000370 bd f6 31 3b 4c 43 18 bc fd 1f 2c 3c bd ae ec bc
       0.0027155124 -0.009293389 0.0105056735 -0.028891915
000380 a9 f9 a1 3c fa 00 09 3d 4c 04 3c bc 92 4f bf 3c
       0.019772368 0.033448197 -0.011475634 0.023353372
000390 99 14 21 3c 1b 5f b3 3c 3b 63 02 bd be 4d 6a bc
       0.009831571 0.021895936 -0.031832915 -0.014300762
0003a0 1a 2f e6 bb 4f 4a 58 3c 98 34 08 bd a6 ab ae bb
       -0.007024658 0.01320131 -0.033253282 -0.0053305207
0003b0 c4 17 fb bc b3 cf 91 3c 3b a1 5b bd 1b 11 a1 3c
       -0.03065098 0.017799234 -0.05362056 0.019661477
0003c0 f7 7c 02 bd f2 55 0b 3d 0c 7f 60 3d 37 c8 14 3d
       -0.031857457 0.03401751 0.05480866 0.036323752
0003d0 3b 06 52 3c b4 3d cc bc fa 4a 3b 3d 4a 74 38 bd
       0.012818868 -0.024931766 0.0457258 -0.045032777
0003e0 2b 7f 31 bc 11 69 0d bd b4 3d db 3c 05 3f 03 3c
       -0.010833542 -0.034524027 0.02676282 0.0080106305
0003f0 9c 61 0b 3c c4 d7 1e 3d 35 db 3e bb cc cc 2a 3d
       0.008507159 0.03877999 -0.0029122357 0.041699216

fc1.bias f4 [256]
000000 c4 d4 bc bc 63 40 bb bc 75 0d cf bc be 7e 6d 3c
       -0.023050673 -0.02285785 -0.025274972 0.01449555
000010 e3 ac 98 bb 42 87 52 bc 6e d0 0c bd 60 b3 05 bc
       -0.0046592816 -0.012849631 -0.03437846 -0.008160442
000020 f5 9a f2 bc 46 a3 e3 bc 27 d9 68 bc 58 6b 07 3d
       -0.029614905 -0.027787816 -0.014211929 0.033061355
000030 8d ab 14 3d 14 f2 c6 bc 7d 9e e3 3c 55 e3 18 bc
       0.036296416 -0.024285354 0.027785534 -0.009331544
000040 79 56 92 bb 66 53 11 3d b3 08 c7 bc 1c f8 b6 bc
       -0.0044658748 0.035479926 -0.02429614 -0.022335105
000050 69 b5 01 bd 80 f5 50 3c b0 ae dd 3a b4 c7 a6 bc
       -0.031667147 0.012753844 0.0016913023 -0.020358898
000060 35 79 0c bc 3f 0c 2b 3c 98 9a f2 bb 6f 28 0c bd
       -0.00857382 0.010439931 -0.007403683 -0.034218248
000070 c9 ac 66 bb bf bb 01 bb 23 a6 18 bd ec ab 1f 3b
       -0.0035198203 -0.0019795743 -0.037267815 0.0024363948
000080 b4 e3 e8 ba e9 9b 1a 3b de df a0 bc 79 8a 95 bc
       -0.0017768056 0.0023591465 -0.019637998 -0.018254505
000090 78 38 cf bc a1 a6 9e bc 99 b5 08 3d b6 02 00 bd
       -0.025295481 -0.019366564 0.03337631 -0.031252585
0000a0 38 a8 61 3c 42 e8 e8 3c dc 8f 89 3c 58 44 b0 3c
       0.013773017 0.028431062 0.01679223 0.021516964
0000b0 44 a8 90 3c 7a ed 80 3b d4 df ee bb 31 d0 01 3d
       0.01765836 0.0039345594 -0.007289866 0.031692687
0000c0 c9 61 9b 3c 21 e4 03 3b 5b 8d f2 3b a7 49 eb bb
       0.018967526 0.002012499 0.007402105 -0.007180411
0000d0 59 c4 d5 b9 82 ec 87 bc 10 48 d6 3c 60 19 ef 3c
       -0.00040772816 -0.016592268 0.026157409 0.029186904
0000e0 aa 93 b9 bc a2 a0 1f bd fd 58 0c bd 72 25 2b bc
       -0.02265342 -0.03897155 -0.034264553 -0.010445939
0000f0 5e 57 d4 3c 4c d2 7d bb 9c 4f 80 b9 00 f7 87 bb
       0.025920566 -0.0038730083 -0.00024473376 -0.0041493177
000100 7a 41 5a 3c c7 b9 8e bc 3a 17 5f 3c 6d ad 30 bc
       0.013321275 -0.01742257 0.0136163775 -0.010783535
000110 eb 25 0c 3d a0 ff 5c bb 27 a7 03 3d ad 51 3e 3b
       0.03421585 -0.00337217 0.03214183 0.0029040382
000120 b7 cc 9e bc 82 4a bc 3c c7 39 85 bc b1 a3 00 bd
       -0.019384725 0.022984747 -0.016262902 -0.03140611
000130 68 ad 03 bd b7 2d 70 3c 1d 65 26 3d 53 f7 62 bc
       -0.032147795 0.014659337 0.040623773 -0.013852912
000140 0c 70 12 3d f5 05 7a 3b 25 5f d5 bb 40 c9 08 3d
       0.035751387 0.0038150523 -0.0065115863 0.033395052
000150 b4 5b 96 3c 13 70 de 3c 1d 82 d6 3c 3c ab 3a bc
       0.018354274 0.02715305 0.02618509 -0.0113933645
000160 06 5b 96 bb 14 e5 c4 3c 57 0f 44 3c 56 47 0a 3d
       -0.0045884876 0.024035014 0.011966548 0.033759438
000170 c3 53 c7 3b d6 dc 9d 3c 8c e5 4b 3b f3 28 08 bd
       0.006082983 0.019270342 0.0031112162 -0.033242177
000180 0a d7 91 3c 79 ae 13 bd 5e 52 e3 bb cc d3 e1 bc
       0.017802734 -0.036055062 -0.006937309 -0.027566813
000190 63 cc 09 3d 74 f1 02 bd 3a 69 19 3d e6 00 8b bc
       0.033642184 -0.03196855 0.037453867 -0.016968202
0001a0 bb 78 18 bd ef c6 37 bb 9b 60 4d 3c e3 31 7b 3c
       -0.037224513 -0.0028042158 0.01253524 0.015331718
0001b0 d3 ff 55 3c 58 aa 92 bc 26 d6 d5 3c fa 62 ad bc
       0.0130614815 -0.017903492 0.02610309 -0.02116536
0001c0 5d bd 01 bd 6a d9 b6 3b 98 ff b9 3c 5f 8a 25 bc
       -0.03167473 0.005580117 0.022704884 -0.010103791
0001d0 b6 68 87 bb f6 39 c8 3b f0 19 f9 3a 13 60 8a bc
       -0.0041323556 0.006110425 0.0019004922 -0.016891515
0001e0 86 2f a7 3c 7f 40 d8 3c a8 35 19 bd 12 fd fb bc
       0.020408403 0.026397942 -0.037404686 -0.030760322
0001f0 7f 26 4d 3c d0 53 d2 bc 84 95 a1 3c de bf c5 3c
       0.012521385 -0.02567473 0.019724615 0.024139341
000200 85 31 3e ba 04 10 33 3c 22 b4 17 bd 27 98 76 3c
       -0.0007255304 0.010929111 -0.037037022 0.015050924
000210 80 0e f9 3b b0 4d d6 3c 2d c7 07 3d 5f 4e d2 bc
       0.0076006055 0.026160091 0.033148933 -0.025672136
000220 2f b3 32 3c 86 1d 20 bc cc 12 13 bd db 85 7c 3b
       0.0109069785 -0.009772664 -0.035906598 0.0038531933
000230 75 af de 3c 3a 50 13 3d 18 62 9e bc b3 6b bb bc
       0.027183274 0.035965182 -0.019333884 -0.022878503
000240 53 e5 98 bc 5f 86 c9 3b 80 38 18 3d 3c 67 ee 3c
       -0.018664038 0.0061500515 0.037163258 0.02910196
000250 09 b5 18 3b da a5 9e 3c 46 f4 8d bc 20 36 af 3c
       0.0023301265 0.019366194 -0.017328393 0.021388113
000260 88 9c d4 3a d5 e7 d5 bc f5 53 a4 3c 8d f5 fd 3c
       0.0016220966 -0.026111523 0.020059565 0.031000877
000270 df f1 1f 3d 16 90 14 bd 5c 98 03 bd 87 4c 17 3d
       0.039049026 -0.036270224 -0.032127723 0.036938217
000280 ec b4 b8 bb c9 a7 63 bb 09 bb 0f 3d 53 e3 1e 3d
       -0.005636802 -0.003473746 0.03509048 0.038791012
000290 37 64 18 bd 51 6f 7a 3b 29 45 fc bc 5b 86 fd bc
       -0.037204947 0.0038213322 -0.030794697 -0.030947855
0002a0 88 8f 91 bc 32 d4 05 bd e3 98 03 bc 01 ab ec bc
       -0.017768636 -0.03267307 -0.0080320565 -0.028890135
0002b0 ca 6f 1c 3c be 42 dd 3c 22 ee 85 bc 1d c2 92 bc
       0.009548137 0.027009364 -0.016348902 -0.017914826
0002c0 52 da 00 bd fc bc 76 3c f1 29 21 3d f7 54 e3 3c
       -0.031458206 0.015059706 0.03934664 0.027750475
0002d0 34 c0 5f bc e8 e4 2c 3c cf bd df 3c 8a b4 8e bc
       -0.013656665 0.010552622 0.027312187 -0.017420072
0002e0 e4 aa 01 bc ad bc ec 3b ef 12 98 ba 3f 76 ac bb
       -0.007914279 0.0072246403 -0.0011602322 -0.0052631195
0002f0 6c 1d 2d 3d 37 fb ee 3b 62 8c 9f 3c b6 0c 07 bd
       0.042264387 0.0072931307 0.01947612 -0.032971106
000300 fd b7 8a 3b 06 a1 8b bc 1a 12 e8 bb 51 fd f5 3c
       0.004233359 -0.017044555 -0.007082236 0.030028017
000310 8d 74 1d 3c c7 52 8a bb 69 03 60 bc 1e 9e ec 3c
       0.009610307 -0.0042212936 -0.013672688 0.02888399
000320 c3 9b ed 3b 95 82 f8 3c 02 3a b5 3c 66 90 0c 3d
       0.0072512343 0.030335704 0.022122387 0.034317397
000330 36 47 89 3b 33 f9 a0 3c 8a 51 d5 3c 52 0c ab bc
       0.004189397 0.019650077 0.026039857 -0.020879898
000340 9c 49 41 3c 83 e9 b7 3c a8 6c 18 3d 36 58 ef 3c
       0.011797335 0.022450214 0.037212998 0.029216867
000350 c1 1c 23 bd aa ae 16 3c 4e 08 13 3d df 5e 15 bd
       -0.039822344 0.009196917 0.03589659 -0.03646743
000360 20 6c 16 bc 0d 80 5b 3c 9d 54 e4 3c 9c f6 38 bb
       -0.009181052 0.013397229 0.027872378 -0.0028223163
000370 17 07 21 bd 9e 90 83 bc 78 13 c1 bc 1a 1d 29 3b
       -0.039313402 -0.01606017 -0.023568854 0.00258047
000380 90 af b4 bb 0d 17 b5 3c c0 6d e4 bc 7a 3f 8a bc
       -0.0055140927 0.022105718 -0.027884364 -0.016875971
000390 25 ab 35 3c 13 3e 33 bc 89 4d 46 3a a9 cb 9a bc
       0.011088167 -0.010940093 0.0007564654 -0.01889594
0003a0 c4 24 26 3d 72 0c c1 3b 18 f2 71 3b f2 a1 3f bc
       0.040562406 0.005891376 0.003691798 -0.011696326
0003b0 88 2f dd bc e4 57 05 bd 8d 76 87 bc 83 78 68 3b
       -0.027000204 -0.032554522 -0.016536022 0.0035472221
0003c0 43 3f 09 3c d7 27 a0 3c ad 6f de 3c 75 6d 60 bc
       0.008376899 0.019550247 0.02715286 -0.013697972
0003d0 22 3d 95 bc a7 d8 09 3d 95 99 26 bb 1c 14 a2 bc
       -0.018217627 0.03365388 -0.0025421132 -0.01978498
0003e0 fb 21 1b 3d 05 ed ac bc 15 e6 b5 3c be b0 8f 3c
       0.037874203 -0.021109113 0.022204438 0.017540332
0003f0 9b 16 50 bc 7d b4 9d 3c 7a c8 be bb 4c 79 5c bc
       -0.012700702 0.019251103 -0.0058222385 -0.013456654

b1.weight f4 [256]
000000 d3 db 80 3f fc 42 7f 3f 8a 90 7f 3f 63 40 80 3f
       1.0067085 0.99711585 0.99829924 1.0019649
000010 23 57 7f 3f e5 22 7f 3f 36 7c 7f 3f 8b c0 7f 3f
       0.99742335 0.9966262 0.99798906 0.9990317
000020 51 70 7e 3f dc 75 7e 3f 9f 5c 7f 3f f2 e1 7f 3f
       0.9939013 0.9939859 0.99750704 0.9995414
000030 69 f0 7f 3f 8d a6 7f 3f 96 f7 7e 3f 59 42 7f 3f
       0.9997621 0.9986351 0.99596536 0.99710613
000040 87 09 7f 3f 5b 42 80 3f 93 4e 7f 3f 81 c0 7f 3f
       0.9962391 1.002025 0.9972927 0.9990311
000050 b6 f7 7f 3f 98 3a 7e 3f 41 2e 7f 3f 6d ca 7e 3f
       0.9998735 0.99308157 0.9967995 0.9952763
000060 86 81 80 3f 6e c9 7e 3f 80 f7 7f 3f cb 6d 7f 3f
       1.0039527 0.9952611 0.9998703 0.99776906
000070 c4 8c 7f 3f d2 56 7f 3f 8e 94 7f 3f e6 84 7f 3f
       0.99824166 0.9974185 0.9983605 0.9981216
000080 c7 a2 7f 3f 99 2b 7f 3f 65 dc 7f 3f 8e 02 80 3f
       0.99857754 0.996759 0.9994567 1.000078
000090 2d 3e 7e 3f 05 e7 7f 3f 55 eb 7f 3f b1 ca 7e 3f
       0.9931362 0.9996188 0.99968463 0.9952803
0000a0 6d 05 7f 3f ee d1 7f 3f 22 32 81 3f be 59 7f 3f
       0.99617654 0.999297 1.0093424 0.9974631
0000b0 4e bd 80 3f 96 3b 7f 3f db a2 80 3f d0 11 80 3f
       1.0057771 0.99700296 1.00497 1.0005436
0000c0 00 20 80 3f 8f 12 80 3f 66 f9 80 3f 18 81 7f 3f
       1.0009766 1.0005664 1.007611 0.99806356
0000d0 65 f2 7f 3f a5 4c 7f 3f b1 ff 7f 3f e3 6e 80 3f
       0.9997924 0.99726325 0.9999953 1.003384
0000e0 8f fc 7e 3f ff 54 7f 3f ee 77 7f 3f 6f 8f 7f 3f
       0.99604124 0.9973907 0.99792373 0.9982824
0000f0 8c fa 7f 3f 00 f8 7f 3f 8b a0 7f 3f 73 62 7e 3f
       0.9999168 0.9998779 0.99854344 0.9936897
000100 06 fb 7e 3f 56 09 80 3f 29 7f 7f 3f be 6a 7f 3f
       0.9960178 1.0002849 0.99803406 0.9977225
000110 22 de 7f 3f d2 35 83 3f 92 b4 7f 3f db f0 7f 3f
       0.9994832 1.02508 0.99884903 0.9997689
000120 f1 ea 7f 3f b4 eb 81 3f a5 2d 80 3f 50 1b 80 3f
       0.9996787 1.0150056 1.001393 1.0008335
000130 ce b6 7f 3f c7 d1 7e 3f 66 34 7f 3f 14 18 80 3f
       0.9988831 0.99538845 0.9968933 1.0007348
000140 c6 ff 7f 3f 63 e1 7f 3f cf b6 7f 3f c5 0c 80 3f
       0.99999654 0.9995329 0.9988832 1.0003897
000150 5d 1a 81 3f 1e e2 7f 3f 3e 13 80 3f 60 d3 7e 3f
       1.008617 0.999544 1.0005872 0.9954128
000160 6b 75 7f 3f 04 aa 80 3f 5b f6 7e 3f c7 42 80 3f
       0.9978854 1.0051885 0.9959466 1.0020379
000170 72 26 80 3f 8d d8 7f 3f be 54 7f 3f 1c 78 80 3f
       1.0011733 0.99939805 0.9973868 1.0036654
000180 44 bc 7e 3f ce 9b 80 3f de 57 7f 3f d1 4c 80 3f
       0.9950602 1.0047548 0.9974345 1.0023443
000190 6e ee 7f 3f 37 ba 7f 3f eb 17 7f 3f db bf 7e 3f
       0.9997319 0.99893516 0.9964587 0.995115
0001a0 7c ff 7f 3f 00 e8 7e 3f ad ea 7f 3f 19 53 81 3f
       0.99999213 0.99572754 0.9996746 1.0103484
0001b0 e4 cb 7e 3f 96 d8 7f 3f b1 fd 7f 3f 21 aa 7f 3f
       0.9952986 0.9993986 0.9999648 0.9986897
0001c0 b8 53 7f 3f 8d 31 80 3f 4c 06 81 3f e7 64 7f 3f
       0.9973712 1.0015122 1.0080047 0.9976334
0001d0 9e 8d 7f 3f 3c 48 7f 3f f1 cf 80 3f 73 26 80 3f
       0.99825466 0.99719596 1.0063459 1.0011734
0001e0 89 1a 7f 3f 21 bd 7f 3f 9c f4 7f 3f fb 44 80 3f
       0.99649864 0.9989796 0.9998262 1.0021051
0001f0 b2 2b 7f 3f 7a 82 80 3f ba e9 7f 3f 1d ef 7f 3f
       0.9967605 1.0039818 0.99966013 0.9997423
000200 78 f3 7f 3f 1e 34 7f 3f 3c e6 7f 3f 34 ef 7f 3f
       0.9998088 0.996889 0.99960685 0.9997437
000210 b2 43 7f 3f 00 00 80 3f c6 99 7f 3f 8b 91 7f 3f
       0.9971267 1.0 0.99844015 0.99831456
000220 c5 8e 7e 3f 22 7c 7f 3f ac 13 80 3f 37 47 80 3f
       0.994366 0.99798787 1.0006003 1.0021733
000230 1b a1 7f 3f 70 f6 7f 3f dc ee 7f 3f c1 10 7f 3f
       0.998552 0.9998541 0.99973845 0.9963494
000240 22 97 7f 3f e4 2f 7f 3f 2f 4b 7f 3f 19 90 80 3f
       0.99839985 0.9968245 0.99724096 1.0043975
000250 db 1f 80 3f c1 30 80 3f 82 0a 80 3f 11 a8 81 3f
       1.0009722 1.0014879 1.0003207 1.0129415
000260 b0 68 80 3f 5d 2d 80 3f 72 a5 7f 3f cd 8f 82 3f
       1.0031948 1.0013844 0.99861825 1.0200135
000270 35 1e 80 3f 0a 6a 7f 3f cb c3 7f 3f fc c0 7e 3f
       1.0009218 0.9977118 0.9990813 0.9951322
000280 98 0b 7f 3f a7 09 80 3f 5d af 7e 3f 38 34 83 3f
       0.99627066 1.0002946 0.99486333 1.0250311
000290 0f 11 80 3f 36 bf 7f 3f 5f 49 7f 3f dc fe 7f 3f
       1.0005206 0.9990114 0.9972133 0.9999826
0002a0 36 e7 7f 3f 8f 94 7e 3f 71 b9 81 3f 5f 56 80 3f
       0.99962175 0.9944543 1.0134717 1.0026358
0002b0 10 fd 7f 3f c4 9b 7f 3f cb f0 7f 3f a8 9f 7f 3f
       0.9999552 0.99847054 0.99976796 0.9985299
0002c0 e6 23 7f 3f 55 71 7f 3f 0d 8a 7f 3f c3 ef 7e 3f
       0.9966415 0.99782306 0.99820024 0.995846
0002d0 05 f4 7d 3f 35 63 7f 3f 38 19 80 3f e8 e7 7f 3f
       0.9920047 0.9976075 1.0007696 0.99963236
0002e0 c5 8d 7f 3f d5 f1 7e 3f 6e d6 7f 3f 0a 79 80 3f
       0.998257 0.99587756 0.9993657 1.0036938
0002f0 eb b1 7f 3f 49 01 80 3f ee b7 7f 3f 7e 0e 7f 3f
       0.99880856 1.0000392 0.9989003 0.9963149
000300 d6 8b 7f 3f 10 88 80 3f 50 d2 7f 3f 2b 05 80 3f
       0.9982275 1.0041523 0.99930286 1.0001577
000310 a8 7e 82 3f 6a 8c 7f 3f df e5 7f 3f 70 ff 7f 3f
       1.0194902 0.9982363 0.9996013 0.9999914
000320 ee 20 80 3f a5 8f 7f 3f 06 ff 7f 3f b4 8a 7f 3f
       1.0010049 0.9982856 0.9999851 0.9982102
000330 02 8b 7f 3f e7 8f 80 3f 1e f5 7f 3f 6b e5 7e 3f
       0.99821484 1.0043916 0.99983394 0.99568814
000340 13 8a 80 3f 84 49 7f 3f 8b ee 7e 3f ab b2 80 3f
       1.0042137 0.9972155 0.9958274 1.0054525
000350 de 69 80 3f 6d b3 80 3f 5f 38 80 3f 33 da 7f 3f
       1.0032308 1.0054756 1.0017203 0.9994232
000360 e8 7a 7f 3f e8 50 80 3f 1c e2 7f 3f 1c 0f 7f 3f
       0.99796915 1.0024691 0.9995439 0.9963243
000370 05 ac 7f 3f e4 0d 7f 3f 37 56 81 3f f6 46 7e 3f
       0.99871856 0.9963057 1.0104436 0.9932703
000380 a5 e4 7f 3f b1 34 81 3f dd fa 7f 3f 93 ac 7f 3f
       0.9995826 1.0094205 0.9999216 0.998727
000390 17 bc 80 3f 63 ce 7f 3f 3c d0 7e 3f 8c 65 7f 3f
       1.00574 0.99924296 0.9953649 0.99764323
0003a0 1d 5b 80 3f 21 e1 7f 3f cf 63 7f 3f 14 2f 80 3f
       1.0027806 0.99952894 0.9976167 1.0014367
0003b0 e0 bb 7f 3f 8a e8 7f 3f 1c b8 7f 3f b9 59 81 3f
       0.9989605 0.999642 0.99890304 1.0105506
0003c0 c2 3b 80 3f 18 fd 7f 3f e0 85 80 3f 3b 34 80 3f
       1.0018237 0.99995565 1.0040855 1.001594
0003d0 df fd 7f 3f e6 ed 7f 3f 9a 67 82 3f 44 48 7f 3f
       0.9999675 0.9997238 1.0187867 0.99719644
0003e0 50 33 7e 3f 56 fa 7f 3f 0d 8e 7f 3f 85 e0 7e 3f
       0.99297047 0.9999136 0.9982613 0.9956134
0003f0 6f e7 7e 3f ec 8d 7e 3f a0 1f 80 3f 45 f6 7e 3f
       0.9957189 0.99435306 1.0009651 0.9959453

b1.bias f4 [256]
000000 37 4f 9d 3b f9 30 14 bb a7 2f 22 bb 28 50 85 bc
       0.004800703 -0.0022612198 -0.0024747641 -0.016273573
000010 7f 1b 8a bb 5e c8 8d bc a2 66 2d 3c 2e 10 1a bc
       -0.0042147036 -0.017307457 0.010583552 -0.009403272
000020 dd 88 1c 3c 4c dc aa bc 3a 72 05 bc 5f 61 4e bc
       0.009554115 -0.020856999 -0.0081449095 -0.012596457
000030 51 e6 71 3b f0 2e ec b9 b9 f4 d5 3b 3a 66 54 bc
       0.003691096 -0.000450484 0.0065294174 -0.012963826
000040 2c 82 57 bc 23 28 b1 3b 3b 61 3b bc 43 57 87 3b
       -0.013153594 0.005406396 -0.011436756 0.0041302755
000050 03 96 df ba fb 94 9a 3b 96 70 d2 3b 0d 70 84 bc
       -0.0017058257 0.004717467 0.0064221127 -0.016166711
000060 30 ce 17 bc 83 f4 be bc d7 ab 98 bb c3 e1 c4 bb
       -0.0092654675 -0.023309952 -0.004659157 -0.006008358
000070 55 23 3c 39 2b cc fd 3b 4a 69 4e bb 83 65 26 3b
       0.0001794224 0.007745286 -0.0031495863 0.0025390096
000080 a6 df 20 bc a8 e2 43 38 e1 ae 56 bc 43 66 c5 3b
       -0.009818947 4.6702713e-05 -0.013103218 0.0060241534
000090 a8 4d 46 3b 4e 8c 41 bc 06 bc bd 3b a8 9a 84 bc
       0.003025869 -0.011813236 0.0057902364 -0.016187027
0000a0 88 3c 57 b8 e1 22 29 3c 8c 9e db bb 33 aa 3f b8
       -5.131637e-05 0.010323257 -0.00670225 -4.569646e-05
0000b0 44 45 40 bc 1d 48 5f bb 2b fa e5 bb 9e 40 0e 3b
       -0.011735264 -0.0034070082 -0.0070183477 0.0021705995
0000c0 26 dd 29 bb f0 87 e1 bb 99 c7 37 3c dd 6b 50 b9
       -0.0025919168 -0.00688266 0.011217021 -0.00019876608
0000d0 73 21 4d bc 55 9a b6 bb 1c 88 f3 3b 5d fd ac bb
       -0.012520182 -0.005572597 0.007431997 -0.0052792267
0000e0 03 60 0c bc d6 82 58 3b 4e 83 a7 3b 1f 81 12 bc
       -0.008567813 0.0033036969 0.0051120883 -0.008941918
0000f0 f9 67 1d ba c0 3b 0e bb 08 2e 8a 3b 0b b0 02 bc
       -0.0006004568 -0.0021703094 0.004216913 -0.007976542
000100 7d 9a fb bb ed 5b b0 3b 10 b2 f3 bb 5f 2c 85 3a
       -0.0076783285 0.005382052 -0.007436998 0.0010160318
000110 b4 cc d6 3b 14 2a b7 3b 49 ad a9 ba ab 1b 32 38
       0.0065551642 0.005589733 -0.001294532 4.2464275e-05
000120 ab e5 60 3b 18 e4 d7 bb 44 f2 8b bc c1 d0 7e bc
       0.003431658 -0.00658847 -0.017083295 -0.0155527005
000130 f2 af e6 bb 71 42 5f 3c a8 04 e9 ba 22 f3 e0 ba
       -0.0070400173 0.013626681 -0.0017777877 -0.0017162303
000140 cb 3f 9e 3b c8 a6 71 3b 2e 28 33 bc 6c de 04 3c
       0.004829382 0.003687309 -0.010934873 0.00810967
000150 0f 02 bc bb 37 c2 09 bc bd e4 3a 39 69 88 bc 3b
       -0.00573755 -0.008408121 0.00017823554 0.005753566
000160 b0 30 86 bc 62 64 b9 bb d4 1c da bb 94 2d 90 3b
       -0.016380638 -0.0056577185 -0.0066562686 0.0043999646
000170 5a 48 8e bc 07 d6 b1 bb ba a9 41 3b 4a b0 85 ba
       -0.017368484 -0.0054271254 0.0029550628 -0.0010199633
000180 36 3b 3d 3a 38 59 1d bc c3 9b 6a bb ed 93 86 3b
       0.0007218601 -0.009603791 -0.0035798408 0.0041069896
000190 a6 59 45 3a 21 f1 b4 bb a4 41 c4 3b d9 32 87 bb
       0.0007528312 -0.005521909 0.0059892703 -0.0041259346
0001a0 25 92 66 3b 16 85 ac 3c 1e e6 12 3b 36 bc 92 3b
       0.0035182324 0.021059554 0.0022414993 0.004478003
0001b0 08 c3 f5 bb 2a ad b2 bb ca c3 16 bb a8 3a 45 3b
       -0.007500056 -0.0054527717 -0.0023004883 0.0030094776
0001c0 b7 15 91 bc 81 3d b9 bb e4 f0 51 3b ff b4 fc bb
       -0.01771055 -0.005653084 0.003203445 -0.007712006
0001d0 4c e9 02 bc e1 61 05 bc b1 0c 02 bb a0 af c4 bb
       -0.007990193 -0.008141012 -0.001984399 -0.0060023814
0001e0 f4 ba 51 bb 65 9f 29 3b 0d fe 1c 3c a6 1b 5a 3b
       -0.0032002302 0.002588236 0.009582055 0.003328064
0001f0 fb bc 77 bb ae d3 e2 ba 06 7a 56 bc 82 21 5f 3b
       -0.003780185 -0.0017305517 -0.013090616 0.0034047072
000200 ed 10 01 bc 48 4e f6 bb 2a e6 27 3b 5c 19 b4 bb
       -0.007877571 -0.007516656 0.0025619366 -0.005496187
000210 4e 65 23 bb 1a 66 ea 3b 71 db e9 3b d5 4b bf bb
       -0.0024932208 0.0071532847 0.007136755 -0.0058378973
000220 48 a0 21 ba 11 07 1e 3c dc b3 a8 bb 39 3c 7a bc
       -0.00061655464 0.009645239 -0.005148394 -0.015273147
000230 32 e5 d8 3a c1 7f 26 3b dd 8c da bb 0b 91 c5 3a
       0.0016547798 0.0025405737 -0.0066696242 0.0015073133
000240 13 c3 b3 3b 5f 2d 30 3c 66 b9 8a bb fe 1b 85 3b
       0.005485901 0.010753005 -0.004233527 0.004062175
000250 ee ba d4 bb 7f 19 09 bc 7c 28 17 bc 38 44 02 bc
       -0.0064920103 -0.008367895 -0.009225961 -0.007950835
000260 2c a9 34 39 93 f4 32 ba c8 ae 90 bb f8 e4 83 bc
       0.00017229159 -0.00068266055 -0.004415367 -0.016100392
000270 1a 5f c1 ba 99 b0 d1 3b 3d 20 58 bb b2 0b 03 3b
       -0.0014753074 0.006399226 -0.00329782 0.0019995985
000280 0a 08 2c bc 1a 3e b8 bb ec 34 74 3b 0b e7 68 3b
       -0.010499964 -0.0056226375 0.003726299 0.0035538103
000290 04 4e a1 3b e0 17 9a bc 2d 22 b5 bb e4 50 d7 3b
       0.0049226303 -0.018810213 -0.0055277557 0.006570922
0002a0 58 44 49 3b f1 5c e6 3b b7 6c 05 3c 4e e7 61 bc
       0.0030710902 0.0070301224 0.008143595 -0.0137880575
0002b0 79 3d 40 b8 f1 c8 3f bc 60 cd 01 bc bf b1 50 3b
       -4.5833618e-05 -0.011705623 -0.0079225 0.0031844226
0002c0 1f 96 83 3a de b7 20 bb cc 88 59 bc f2 d3 4e 3c
       0.0010039246 -0.0024523656 -0.013277244 0.012623774
0002d0 95 76 42 bc 7a 33 0d 3a ca 1d 67 bc 47 2c 30 bc
       -0.0118690925 0.0005386394 -0.014106223 -0.010752744
0002e0 9b 47 9b ba 66 36 e9 b9 91 59 14 bb a0 e0 4e bc
       -0.0011846902 -0.00044481753 -0.0022636394 -0.012626797
0002f0 00 71 cd ba 98 32 fb bb 44 08 a3 bb 45 60 e6 3a
       -0.0015673935 -0.0076659434 -0.0049753506 0.0017576298
000300 7f e0 0e bc 82 75 57 bb 00 8d 2c bc e4 6e 02 bc
       -0.008720516 -0.0032876437 -0.010531664 -0.007961009
000310 74 2a 64 ba ca 37 78 bc 28 50 0d bc f1 7e 1b 3a
       -0.0008703836 -0.01515002 -0.008625068 0.00059316965
000320 be 04 1f bc 02 ce 91 bc 6e 40 fc bb 68 ba 3e bb
       -0.0097057205 -0.017798427 -0.0076981103 -0.0029102806
000330 e1 d7 3d bc 7f d8 67 bb dd 2a 18 bb 8a 1b bb bb
       -0.011587114 -0.0035376844 -0.0023218908 -0.00571007
000340 b5 f8 13 bb 0d 9d 10 bc 06 29 ef bb 5f 06 d1 ba
       -0.002257866 -0.008826506 -0.0072985915 -0.0015947333
000350 c8 25 cc ba b9 a7 fd bb aa 07 a7 3b 6a 7d dc 3a
       -0.0015575225 -0.0077409414 0.005097349 0.0016822044
000360 a5 8c 63 bb 65 31 a0 3a e3 06 25 bc 31 f8 56 bc
       -0.0034721282 0.0012221752 -0.010072443 -0.013120697
000370 72 48 17 bc c8 51 9d bb c4 08 62 3b e5 4e 3e bb
       -0.009233581 -0.004801009 0.0034490088 -0.0029038724
000380 91 0d aa bb f4 31 56 bb 0d fd aa ba 62 f0 7b 3c
       -0.0051896055 -0.0032683583 -0.0013045386 0.015377136
000390 d6 33 6d bb c5 5f 2d bb 65 04 34 bc 92 a1 3e b9
       -0.0036194227 -0.0026454788 -0.010987376 -0.00018180002
0003a0 5e d8 bd bb d9 4a 14 bc bc 61 4e bc be 36 39 bc
       -0.0057936152 -0.009051048 -0.012596544 -0.011304555
0003b0 8e 63 9a ba 40 0a 26 3b 83 d4 8e 3b 56 19 83 3b
       -0.0011778937 0.00253357 0.0043588295 0.004000823
0003c0 a2 f3 38 bc 5a ed b6 bb fc 9a 26 bc 8d 6e 4e 3b
       -0.011288555 -0.0055824937 -0.010168787 0.0031499
0003d0 92 74 8b 3a 04 50 bd bb 62 db 29 bc f4 17 26 3b
       0.0010639599 -0.005777361 -0.010367246 0.0025343867
0003e0 1d 56 55 3b 21 e9 3f bc d0 85 70 bc c3 88 b7 ba
       0.0032552548 -0.011713297 -0.014680341 -0.001400255
0003f0 31 1b d7 ba 67 90 07 bc d9 6b 19 bc 5c ca 43 3c
       -0.0016411302 -0.008274174 -0.009364092 0.011950102

b1.running_mean f4 [256]
000000 2f 08 01 40 12 87 bd 3f 51 e4 31 40 f8 3f d0 3d
       2.0161245 1.4806845 2.7795603 0.10168451
000010 97 5f 58 3f c2 8e 04 3f 31 8f 09 3f fb ac 0c 3f
       0.8452086 0.5178033 0.5373412 0.5495145
000020 ce 16 ce 3f 16 fe 9d 3f 4c 84 16 3f 99 a4 5e 3f
       1.610071 1.2343166 0.5879562 0.86969906
000030 04 00 00 00 75 d3 74 3e 9c 36 03 40 28 aa c3 3e
       6e-45 0.2390879 2.050208 0.38215756
000040 dd b7 25 3f 22 aa b0 3e cd f2 18 40 99 fd bd 3f
       0.6473368 0.345048 2.3898194 1.4843017
000050 4d 37 7e 32 d6 7d fd 3f 45 68 fa 3f 6e 21 17 3f
       1.479732e-08 1.9804027 1.956307 0.59035385
000060 3f 30 8f 3f 3d 21 9b 3f f9 db c7 3e 24 fb 81 3f
       1.1186599 1.2119519 0.39035013 1.0154767
000070 52 83 b4 3f 14 ae 38 40 cd 6b 8d 25 06 df b6 3f
       1.4102576 2.885625 2.453265e-16 1.4286811
000080 da a6 3e 3f 0c f5 45 3f 40 dc 98 3e 04 00 00 00
       0.74473345 0.77327037 0.29855537 6e-45
000090 2b 95 f8 3e 53 34 26 30 04 00 00 00 cc e0 95 3f
       0.48551306 6.0464805e-10 6e-45 1.1709228
0000a0 3e 42 68 3e c1 b3 13 32 27 fa 12 3f ea 75 33 40
       0.2268152 8.5973975e-09 0.5741295 2.804072
0000b0 df 85 8f 3e 5d da 25 3f 10 bf 4f 3e d3 09 70 3f
       0.28031823 0.6478632 0.20287728 0.9376499
0000c0 ef 24 fa 3e 5c d9 85 3f 04 00 00 00 29 ed 54 3f
       0.48856303 1.0456958 6e-45 0.8317438
0000d0 91 49 86 3d 91 7f f3 31 24 f2 8f 35 ed f9 94 3e
       0.065570004 7.0867334e-09 1.0724802e-06 0.29096928
0000e0 63 65 4e 3f 22 6a 96 3f 2a 6f 2b 40 99 cd c1 3e
       0.80623454 1.1751139 2.67866 0.3785217
0000f0 04 00 00 00 04 00 00 00 d4 0f a0 3f 11 05 b4 3e
       6e-45 6e-45 1.250483 0.35160115
000100 c3 00 e8 3e 0d d1 67 40 f3 5a ed 3e 08 97 0d 40
       0.4531308 3.6221344 0.4635845 2.2123432
000110 e4 67 ca 33 4d 91 8b 3f 40 5a 58 3a 55 04 92 31
       9.4252556e-08 1.0903717 0.00082531944 4.2496517e-09
000120 97 dc d9 34 68 06 36 3f 97 be 5a 3f 8b 17 46 3f
       4.05799e-07 0.71103525 0.8544707 0.77379674
000130 04 00 00 00 e1 ff 75 3f 6c e2 a8 3f dd b8 7b 3f
       6e-45 0.96093565 1.3194098 0.98328954
000140 88 d2 90 31 9c 25 47 37 c4 41 f3 3e b7 7d 16 40
       4.214886e-09 1.1870081e-05 0.47511113 2.351423
000150 c5 11 10 3f 6e 92 8c 3e eb 6c 48 3f f1 6d e3 3e
       0.56277114 0.27455467 0.78291196 0.44419816
000160 c0 ad 8e 3e f5 73 ea 3e 03 13 93 3f 09 e9 a7 3e
       0.27866936 0.45791593 1.1490177 0.3279498
000170 1b 47 8b 3e 04 00 00 00 2d 77 47 3f f7 48 af 3e
       0.27202687 6e-45 0.7791622 0.34235355
000180 31 7d 80 3e 12 99 be 3e bb 9c 98 3f 14 3a c7 3e
       0.25095513 0.37226158 1.192283 0.38911498
000190 59 8d d8 31 0a a4 e0 3f 50 4b 4c 40 f6 43 f9 3f
       6.3024967e-09 1.7550061 3.1920967 1.9473865
0001a0 04 00 00 00 fc 27 92 3f ba c0 fa 35 ea 47 4c 3e
       6e-45 1.1418452 1.8682542e-06 0.19949308
0001b0 59 70 58 3f 74 91 96 3e d9 ca 49 34 d6 d2 d3 3e
       0.8454643 0.29407847 1.879338e-07 0.41371793
0001c0 6e f3 5a 3f a4 06 a0 3e 27 2f b6 3f 70 a7 fb 3d
       0.85527694 0.31255066 1.423314 0.122877955
0001d0 28 b4 da 3e 9d 0d 0c 3f 2b 34 6d 3e 11 44 b9 3e
       0.42715573 0.5470827 0.23164432 0.36184743
0001e0 28 21 f7 3f 88 06 a5 3e 04 00 00 00 cd fe 92 3f
       1.9306993 0.32231545 6e-45 1.1484009
0001f0 40 60 91 3e d0 c9 43 3f 35 09 3f 3e 04 00 00 00
       0.28393745 0.76479816 0.18655856 6e-45
000200 76 a8 db 31 a9 4b 94 3e ef f8 09 3f 28 8b 05 40
       6.3928907e-09 0.28963974 0.5389547 2.0866184
000210 11 c6 2f 3f 00 00 00 00 01 a3 2a 40 de 04 a3 3f
       0.686616 0.0 2.666199 1.273586
000220 c4 73 99 3f fa a3 62 3f 4c 1d ae 3f 76 fc 3a 3f
       1.1988454 0.8853146 1.3602691 0.73041475
000230 f1 b3 5d 3f 04 00 00 00 2b 60 06 3f 80 45 13 3f
       0.86602694 6e-45 0.5249049 0.57527924
000240 a3 6e fe 31 1b 06 96 3f f7 19 3f 3e 29 3e fe 3d
       7.404951e-09 1.1720613 0.18662249 0.124142
000250 29 c2 c7 3e b7 82 5d 3f 2a 0b 64 3f 9b 96 7e 3e
       0.3901532 0.8652758 0.89079535 0.24862139
000260 f2 40 0d 3f a4 52 8b 3e 33 a7 c7 3e c0 1e 83 3d
       0.55177224 0.27211487 0.3899475 0.064023495
000270 97 55 41 3f 38 d9 ad 3e b1 f0 83 3f 1c 29 75 3f
       0.75521225 0.33954787 1.0307828 0.9576585
000280 f8 58 1f 3f 22 d3 9e 3e d5 4e 6b 3f d0 f5 16 3f
       0.6224513 0.31020457 0.91917163 0.5896883
000290 ec 35 41 3f 19 9e 97 3f 7d 96 72 3f 04 00 00 00
       0.75472903 1.1845123 0.94760877 6e-45
0002a0 38 d7 0d 2f 08 16 37 3f d2 2d 25 3f 23 8f 0f 3e
       1.2900336e-10 0.7151799 0.6452304 0.14019446
0002b0 73 ff 50 31 a4 05 e4 3e 04 00 00 00 4a 2e 30 3f
       3.041319e-09 0.44535553 6e-45 0.6882063
0002c0 91 f6 db 3f 1b 06 56 3f 6e c4 82 3f 0c c6 b0 3f
       1.7184621 0.83603066 1.0216196 1.3810439
0002d0 e5 2f 61 40 31 c6 8e 3f 18 06 2b 3e 4d 12 99 3f
       3.5185483 1.1154233 0.16701543 1.195871
0002e0 c6 3b c0 32 06 7e 6a 3e e9 7e ab 2e d6 be ae 3e
       2.2378924e-08 0.22899637 7.7987235e-11 0.3412997
0002f0 cf fb 0e 3f b9 ae e6 3e df e1 90 3e fc 97 16 3f
       0.5585298 0.45055178 0.28297326 0.5882566
000300 96 1e dd 3e 3c 18 2f 3f 3b 81 d8 3f a6 9c fb 3f
       0.43187398 0.68396354 1.6914438 1.965718
000310 a4 36 cb 3e 57 86 b8 3f d9 db 44 3e 04 00 00 00
       0.39690125 1.4415997 0.1922449 6e-45
000320 f9 65 d6 3f 49 3e 36 3f 04 00 00 00 10 89 d1 3f
       1.674987 0.7118879 6e-45 1.6369953
000330 6f 05 c2 3e 8a 4b bb 3f ba 2a 71 32 0f e6 dd 3f
       0.3789477 1.4632428 1.4037761e-08 1.7335833
000340 c3 93 d2 3d 7b 94 32 3f 0c 03 27 3e 62 ef fb 3e
       0.102820896 0.69757813 0.16309756 0.49206072
000350 b7 d8 ff 3e 52 bb a7 3f d3 c0 ca 3f 11 08 55 33
       0.49970028 1.3104041 1.5840095 4.9600263e-08
000360 64 5c a2 3f 5a 19 60 3f d1 d8 dd 3e 10 0d e7 3f
       1.2684445 0.87538683 0.4332948 1.8050861
000370 28 c5 c9 3e be fc 96 3f ec 6f 0a 3f 9f c2 52 3f
       0.3940823 1.1795881 0.5407703 0.8232822
000380 e3 95 db 3f 16 c1 83 3e 8f 1c 16 34 04 00 00 00
       1.7155117 0.2573325 1.3980228e-07 6e-45
000390 48 e6 bd 3e 1c bb 3c 34 34 88 51 3f f8 ba 50 3e
       0.37089753 1.7576934e-07 0.81848454 0.20383823
0003a0 27 0f f7 3f d8 4b d1 3f 9c 6b 5d 3e 32 f5 69 3f
       1.9301499 1.6351271 0.21623081 0.91389763
0003b0 b2 cc 19 33 04 00 00 00 d1 36 24 3f a3 a7 e1 3e
       3.5809258e-08 6e-45 0.64146143 0.4407321
0003c0 72 ae 08 40 04 00 00 00 19 03 1d 3f 79 3b 26 3f
       2.1356473 6e-45 0.6133285 0.649345
0003d0 91 98 ab 3f 9d f4 49 3f 91 23 e9 3e 6a d6 a6 3f
       1.3405935 0.78888875 0.45534948 1.3034184
0003e0 4b 40 c6 3f 55 9a 8d 32 28 e2 5d 3f 70 e3 06 3f
       1.5488371 1.6484742e-08 0.8667321 0.5269079
0003f0 35 76 ab 3f 53 99 96 3e 14 d5 ea 3e 38 79 71 3f
       1.3395449 0.29413852 0.4586569 0.9432559

b1.running_var f4 [256]
000000 0f 29 7f 3f bc 44 ed 3f 2b f4 50 40 6c 56 31 3d
       0.99672025 1.8536601 3.2649028 0.04329531
000010 36 7f ee 3f c9 f5 86 3f 66 d8 0f 3f 26 b1 e6 3e
       1.8632572 1.0543758 0.5618957 0.4505703
000020 d9 25 1f 40 25 25 86 40 da 9f d6 3e e0 67 03 3f
       2.486685 4.1920342 0.41918832 0.51330376
000030 04 00 00 00 7e 83 66 3e 77 9e 17 40 ef 74 17 3f
       6e-45 0.22511098 2.369047 0.591628
000040 72 e7 a9 3f ad b4 ef 3d cc 89 8d 40 a4 a1 63 3f
       1.3273757 0.11704383 4.423071 0.8891852
000050 fe 55 86 2e e6 e7 60 40 41 00 0c 40 f5 cf 55 3f
       6.10889e-11 3.514154 2.1875155 0.8352044
000060 f5 1d 66 3f ef 0b 83 40 cd d5 fe 3d d8 f4 9e 3f
       0.8988946 4.0952067 0.12443123 1.241847
000070 cc c6 d6 3f 7f 74 37 41 8d d0 3a 22 7f 7b 9f 3f
       1.6779418 11.465941 2.5318106e-18 1.2459563
000080 cd f3 2e 3f 9a 5a 6d 3f 5d e0 24 3f 04 00 00 00
       0.6834076 0.9271637 0.6440485 6e-45
000090 54 92 7d 3f ad 3c 05 2b 04 00 00 00 42 c4 32 40
       0.99051404 4.7335296e-13 6e-45 2.7932286
0000a0 f3 f5 4e 3e 48 82 bf 2e 2b b8 10 3e a9 44 c7 40
       0.2021101 8.708817e-11 0.14132755 6.2271314
0000b0 b7 0f 30 3e 3b 1a b3 3e 0d 87 63 3d 77 52 79 3f
       0.17193495 0.3498095 0.055548716 0.97391456
0000c0 1f 5b 2f 3e 1a 45 bf 3f 04 00 00 00 74 43 b0 3f
       0.17124604 1.4942963 6e-45 1.3770585
0000d0 d6 93 92 3d 2f 03 00 2e b6 51 4e 34 71 59 07 3e
       0.07157104 2.9106658e-11 1.9214971e-07 0.13217713
0000e0 94 d1 af 3e cb c2 bd 3f 4e 83 eb 3f 98 35 fe 3e
       0.34339583 1.4825071 1.8399446 0.49650264
0000f0 04 00 00 00 04 00 00 00 9c 10 83 3f 71 c2 23 3f
       6e-45 6e-45 1.0239444 0.6396857
000100 85 4e 17 3f 0c a5 6b 40 4b 47 89 3e 5f c2 b7 40
       0.59104186 3.6819487 0.26812205 5.742477
000110 5e 93 a4 31 4d e4 24 3f 6d 33 13 39 fa a5 a6 2d
       4.789782e-09 0.6441086 0.0001403817 1.8945723e-11
000120 0e 65 f6 31 4a ba b3 3e 63 f5 c1 3e f0 6b 12 3f
       7.171031e-09 0.35103065 0.37882528 0.5719595
000130 04 00 00 00 2e 49 d0 3f e7 51 d8 3f 01 b1 b9 3f
       6e-45 1.6272333 1.6899995 1.4507142
000140 8e 28 4d 2d 23 4f 7c 35 19 04 10 3f ac 71 9c 3f
       1.1661906e-11 9.3992475e-07 0.5625625 1.222219
000150 be fe 80 3e ef 46 f8 3d 33 73 63 3f c7 43 55 3f
       0.25194353 0.121229045 0.88847655 0.83306545
000160 67 d2 a9 3e a5 2b 35 3e a9 e2 fa 3f 23 7f ce 3d
       0.33168337 0.1769243 1.9600421 0.10082843
000170 d5 35 a2 3d 04 00 00 00 36 6d d4 3e 62 44 2d 3e
       0.07920424 6e-45 0.4148957 0.16920617
000180 89 4b 0c 3e 04 f6 78 3e 12 82 49 3f 11 c7 d2 3d
       0.1370069 0.24312598 0.78714097 0.10291875
000190 58 07 9f 2d 1e a7 d4 3f 15 97 96 40 c0 95 6e 40
       1.8079468e-11 1.66135 4.7059426 3.72789
0001a0 04 00 00 00 36 03 c8 3f ae eb 9a 32 69 35 3e 3d
       6e-45 1.562598 1.8035134e-08 0.046437655
0001b0 3e 57 d9 3f 83 77 c9 3d 53 e3 06 32 c4 9d 27 3e
       1.6979749 0.09837248 7.851514e-09 0.16368777
0001c0 f1 1f 3e 40 71 07 be 3d 75 8f bb 3e 51 f9 fb 3d
       2.9706995 0.09278763 0.36632887 0.12303413
0001d0 a6 b7 ba 3e c4 ee 5b 3f 52 10 68 3d 9b 58 f8 3e
       0.36468238 0.859112 0.05665619 0.485051
0001e0 6b df 6f 40 63 69 08 3e 04 00 00 00 b6 cd 64 3f
       3.7480114 0.13321452 6e-45 0.8937639
0001f0 bc b3 e5 3e 85 32 aa 3e ed 02 59 3e 04 00 00 00
       0.4486369 0.33241668 0.21192522 6e-45
000200 5c b8 68 2e 7d 1e 01 3f fa 6d 55 3e ff 3a d7 3f
       5.2914437e-11 0.50437146 0.20842734 1.6814879
000210 a1 cf c7 3f 04 00 00 00 9d 4c 08 40 4c 29 3a 3f
       1.5610238 6e-45 2.129676 0.72719264
000220 ae 37 56 3f 3c b2 48 3f da 2d 3d 3f fc e9 8f 3f
       0.8367871 0.78396964 0.7389809 1.1243281
000230 bb 1c f1 3e 04 00 00 00 46 1f bb 3e fd 29 f9 3e
       0.47092232 6e-45 0.36547297 0.48664847
000240 c5 b6 ea 2d b4 ef 1f 40 7e a8 0d 3e a7 df ca 3c
       2.6683886e-11 2.4990053 0.13833806 0.024764849
000250 96 84 29 3e 44 7d 82 3e 54 b0 b1 3e 7b 1c 8c 3d
       0.16554484 0.25486195 0.3470484 0.0684137
000260 6c 18 34 3e e0 fe 01 3e 99 60 3d 3f 00 21 b4 3c
       0.17587441 0.12694883 0.7397552 0.021988392
000270 ff 7d 03 3f 4c 26 4d 3e a5 a0 0f 40 56 14 ca 3e
       0.5136413 0.2003414 2.24418 0.3946864
000280 07 ad 7a 3f a9 a3 5d 3e b8 43 52 3f 58 2d 05 3e
       0.9792027 0.21644463 0.8213458 0.13005579
000290 1a e4 c0 3e 87 1a ee 3f 11 3b b0 3f 04 00 00 00
       0.37674028 1.8601846 1.3768026 6e-45
0002a0 74 13 c2 28 a1 f6 7d 3f 3c f8 14 3e 51 d0 e4 3d
       2.1546763e-14 0.9920445 0.14547819 0.11172546
0002b0 41 ba 41 2d ec b5 c4 3e 04 00 00 00 c2 e6 3a 3f
       1.10121365e-11 0.38420045 6e-45 0.7300836
0002c0 90 33 93 40 f6 09 dc 3e 4b 58 73 3f 20 c4 97 3f
       4.6000443 0.4297635 0.950566 1.1856728
0002d0 f2 37 00 40 84 24 4c 40 21 ab 5c 3d f0 61 1a 40
       2.0034146 3.1897287 0.05387414 2.4122276
0002e0 68 44 c5 2f 59 c7 54 3e 82 18 85 27 81 78 ed 3d
       3.5882697e-10 0.2077917 3.6941487e-15 0.1159525
0002f0 bc 2f 09 3f 69 62 8f 3e 01 f5 06 3e 98 08 97 3e
       0.5358846 0.28004768 0.13179399 0.29498744
000300 c4 2c 19 3f 94 58 d0 3e 99 f3 91 3f 52 9c df 3f
       0.5983393 0.4069258 1.1402465 1.746958
000310 eb 4e d9 3d 3b 9d 85 40 d8 17 80 3d 04 00 00 00
       0.106107555 4.175443 0.06254548 6e-45
000320 90 8d 25 3f dd d0 78 3f 04 00 00 00 87 29 d6 3f
       0.6466913 0.971937 6e-45 1.6731423
000330 72 7d 8c 3e 98 6d c7 3e 89 cf 74 2e 3f 41 e0 3f
       0.27439457 0.389508 5.5663505e-11 1.7519912
000340 1a 91 e5 3c 7e be 6f 3f 30 6d ed 3d 7e c7 84 3e
       0.028023291 0.93650043 0.115930915 0.2593345
000350 d6 44 6f 3e 42 cb 26 3f a4 76 0e 3f 06 c1 3f 30
       0.23366103 0.65153897 0.5564978 6.97597e-10
000360 59 4e 77 3f 33 bb 83 3e 9c d4 1e 3e d4 af 92 3f
       0.96603924 0.2572876 0.15510792 1.1459908
000370 3d 5b 50 3f a3 55 eb 3f 6b 28 61 3e 33 70 8a 3f
       0.8138922 1.8385509 0.21988074 1.081549
000380 a4 ae 7b 3f 3d 72 58 3d 97 e5 b6 31 04 00 00 00
       0.98313355 0.05284332 5.3229985e-09 6e-45
000390 b9 9e db 3d cc a6 39 2f fd 51 30 40 b9 c9 2b 3e
       0.10723633 1.688491e-10 2.7550042 0.1677617
0003a0 25 09 06 40 c9 f4 dd 3f c3 ae 7f 3e d4 4f 08 3f
       2.0943081 1.7340328 0.2496901 0.5324681
0003b0 a3 a2 5a 30 04 00 00 00 29 44 90 3e 4c 01 fd 3d
       7.953906e-10 6e-45 0.28177002 0.12353763
0003c0 dc d8 25 40 04 00 00 00 3b 3f b1 3e 2c 6e 27 3f
       2.591361 6e-45 0.34618554 0.65402484
0003d0 a2 37 88 3f 9b 55 a2 3e e6 b3 ef 3d 5e 30 db 3f
       1.0641978 0.31705937 0.11704235 1.7124135
0003e0 59 3d 8a 40 08 cd 0a 2f 5b 09 95 3f 5e 80 ca 3f
       4.3199887 1.2623869e-10 1.164348 1.5820425
0003f0 fc 41 8a 3f 9c b4 17 3f ba f3 10 3f 8d 1b 10 40
       1.0801387 0.59259963 0.566219 2.2516816

fc2.weight f4 [64, 256]
000000 9c aa 3f bd 10 2e 9c 3c 7f 7c 7b bd c1 c8 b5 bc
       -0.046793565 0.019064933 -0.061398026 -0.022190453
000010 e5 b9 c9 bc 19 2c 39 3d cc 70 b9 3c fa 35 d6 bc
       -0.024624774 0.04520807 0.022636794 -0.026148785
000020 ca 95 48 3d e9 d7 ca bb 3a 37 de bc 6c 06 80 3d
       0.048970975 -0.0061902893 -0.027125943 0.06251225
000030 07 d4 8b bc 7a cc a9 3c af 78 cc bc f1 8e 1c bd
       -0.017068876 0.020727385 -0.02495989 -0.038222257
000040 6e 0d 5d bc f6 9a 26 3d 05 ab d2 3c db a0 ec bc
       -0.013491971 0.040675126 0.025716314 -0.028885296
000050 88 f4 2b 3d 6c 12 bc b9 0d 52 4d 3d d3 94 fb 3c
       0.04198125 -0.0003587188 0.050127078 0.030710613
000060 0f 5b 54 bb 66 64 27 bd 1d 09 7a 3c 26 47 c9 3c
       -0.0032402908 -0.04086723 0.015260962 0.024570059
000070 f7 2f 40 bd 53 b0 11 bd 35 f9 7b bd e5 cd 25 3c
       -0.046920743 -0.035568547 -0.06151696 0.01011989
000080 2f 2c 5a bd d3 07 29 bc e0 da 27 3d ae 61 7c 3d
       -0.053264793 -0.010316807 0.04098022 0.061616592
000090 6f 38 3d 3c c3 54 ab bb dd 16 ae bc e9 4d cf bb
       0.011549099 -0.0052286102 -0.021251136 -0.0063264263
0000a0 03 08 59 3d b5 48 39 3d 4f 6f 1a 3d dc bd 8f 3c
       0.052986156 0.045235354 0.03770381 0.017546587
0000b0 1d 9e 30 3d 2e 3e 4a 3d eb 91 a3 3c 3b 2d a2 bb
       0.04311954 0.049375705 0.01996704 -0.0049492395
0000c0 d7 fb 5c bd 1b 40 ef bc 10 d1 6e 3d 34 3d 7b 3d
       -0.05395111 -0.029205373 0.058304846 0.061337665
0000d0 1c 1b 0f 3d 09 cf b6 bc 95 18 24 3d a4 aa 90 bc
       0.034937963 -0.022315519 0.040062506 -0.017659493
0000e0 28 eb f4 bc 97 2b 45 3d aa 4d 6f bd a6 43 23 bd
       -0.029897287 0.048137274 -0.058423676 -0.039859436
0000f0 ae 88 8c bc 59 b1 08 3d d8 48 56 bd 4e fe 19 bd
       -0.017155018 0.033372257 -0.052315563 -0.03759604
000100 b6 be 8e bc ab 7d f1 bb 36 39 f9 3c ad f6 ec bc
       -0.017424922 -0.007369717 0.030422788 -0.028926218
000110 a4 b1 c0 3c 6a b2 54 3d bc f5 3f bd 9b ca 46 3c
       0.023522206 0.05192796 -0.04686521 0.012133266
000120 38 dd 53 bd 47 3e 5f bd 1e bd 0d 3d a2 60 27 bd
       -0.051724643 -0.05450275 0.034604184 -0.04086364
000130 0b 5c ad 3c ca dd 19 3d 24 ad ce 3b 04 3b eb bc
       0.021162054 0.03756503 0.006307261 -0.028714664
000140 f4 a3 5b 3d 7f 50 67 3d 3d a2 63 3d b5 c8 c2 bb
       0.053623155 0.05647325 0.055574644 -0.0059443363
000150 c7 79 c7 3c ce 74 87 bc c7 0b ff bb 6f 52 43 3d
       0.02435006 -0.016535189 -0.0077833864 0.047686037
000160 4d fd 5f 3d b4 d4 20 bd 74 3b cc bc 52 5a 17 3d
       0.054684926 -0.03926535 -0.024930693 0.03695137
000170 b2 77 c2 bc de 1e 67 3c 81 e3 43 3d 14 83 f1 3b
       -0.023738716 0.01410648 0.047824387 0.007370362
000180 e6 22 d1 3b 9c e5 34 bd 62 f3 f4 3c 3b 29 84 3c
       0.006382334 -0.044164285 0.02990121 0.016132941
000190 e9 86 08 bd 79 66 f5 3c fc 39 1f bb 29 8a 85 bc
       -0.033331785 0.02995609 -0.0024296036 -0.016301231
0001a0 56 c2 41 3d 96 ed a4 3c 5f 00 1c 3d 8b 3e 44 bd
       0.047304474 0.020132821 0.03808629 -0.047911208
0001b0 5c 5c db bc 17 9f 4c 3d d7 b4 68 bd 67 d0 5e bd
       -0.026777439 0.049956407 -0.056813087 -0.054397967
0001c0 b5 c1 b1 bc e5 57 1a 3d 02 0f 0f 3d 1c 47 99 bc
       -0.021698812 0.03768148 0.034926422 -0.018710665
0001d0 42 df b6 3c 7b 67 3b bd 52 62 56 bd 28 ad 80 bd
       0.022323254 -0.045752984 -0.05233986 -0.06283027
0001e0 0d c4 19 bc f7 4e 8b 3c 26 bb 07 bd 35 25 34 bd
       -0.009385121 0.017005427 -0.033137463 -0.043980796
0001f0 5d 34 40 bc aa c8 0f bd fb 37 f2 ba a1 09 81 bc
       -0.011731234 -0.035103478 -0.0018479818 -0.015751662
000200 54 a8 4d 3c 69 e6 9b 3b c9 b5 ce 3c ec 08 a3 3c
       0.01255234 0.0047576916 0.025233166 0.019901715
000210 17 e6 19 3d 70 12 5c bd 2a 4d c2 bc eb 4f 88 3c
       0.037572946 -0.05372852 -0.023718435 0.01663967
000220 39 af 10 3d c2 e6 0f 3d b4 5e f7 3c e3 c4 60 bc
       0.035323355 0.035132177 0.030196525 -0.013718816
000230 7e ca 22 3c 27 df af bc 76 98 19 3d af 05 fe 3a
       0.009935973 -0.021468712 0.037498914 0.0019380356
000240 b0 49 25 bd 4c 5d 32 3d a5 71 21 bc 30 44 35 3d
       -0.040353477 0.043546006 -0.009853755 0.04425448
000250 dc fb 22 bc 60 63 ad bc 16 c0 31 3d 54 bc e2 3c
       -0.009947743 -0.02116555 0.043396078 0.027677692
000260 4c 0e 2d 3d 35 91 74 3d 0d 0f 48 3c 47 51 b9 3b
       0.042249963 0.059708793 0.01221062 0.005655441
000270 e4 09 90 b5 b6 c2 31 bd d2 43 59 3d de f0 57 3c
       -1.0731715e-06 -0.04339858 0.053043194 0.013179986
000280 15 ef c0 3c c9 45 44 3d 84 80 45 3d 43 b1 c3 bc
       0.023551503 0.047918115 0.048218265 -0.023888236
000290 42 99 30 bd 1e ca 59 bd 58 5c eb 3c 77 ee f4 3c
       -0.043114908 -0.05317127 0.028730556 0.029898865
0002a0 f9 f5 2d bd 72 d8 0f 3d 78 78 36 bd 07 6d 30 bd
       -0.042470906 0.035118528 -0.04454848 -0.043072727
0002b0 32 da 4c 3d 78 96 ca 3c 97 da 66 bd 6a 5d c3 3b
       0.050012775 0.024729952 -0.056360807 0.0059620636
0002c0 c2 39 ed 3c 3f 3c 49 3d 57 c7 ed 3b 78 dd d7 bb
       0.028958205 0.04912972 0.007256429 -0.0065876804
0002d0 37 cf 4f bd 83 b9 62 bb 12 f4 1e 3d ea 78 d1 bc
       -0.050734725 -0.0034595437 0.038806982 -0.025570352
0002e0 ec 3e c9 3c bf 73 cf bc c4 cb 7d bb a4 2f d7 bb
       0.024566136 -0.025323747 -0.003872619 -0.0065669585
0002f0 46 40 00 3d 9e a9 10 3d d7 0e 13 3d a4 49 ca 3c
       0.031311296 0.03531801 0.035902824 0.024693318
000300 5a 9a 7a bb a4 24 88 bd ec 65 8c 3c 27 02 3d bd
       -0.0038238973 -0.06647614 0.017138444 -0.04614463
000310 0f 08 56 bd df fd 28 bd 55 95 9a 3c ba f6 0b 3d
       -0.05225378 -0.041257735 0.018870035 0.034170844
000320 73 8a 61 3a d4 e6 1e 3d 2b 28 55 3d 72 47 1d 3d
       0.00086036994 0.038794354 0.05204026 0.038398214
000330 03 21 1c bd 5f 76 6f bd 39 1d a8 bb ab 03 78 3d
       -0.03811742 -0.058462497 -0.0051304367 0.060550373
000340 15 b8 1f 3c 14 78 8b 3b 5b ca 51 3d 88 7a 6b 3d
       0.009748478 0.004256258 0.05121837 0.0574899
000350 db 9d 1e bb 50 a1 c7 3c 09 cc 76 3a 1a 03 2e 3d
       -0.0024202976 0.024368912 0.0009414559 0.042483427
000360 35 63 31 3d 09 a0 0a bd f0 45 0d bd b7 c4 27 bd
       0.0433075 -0.033844028 -0.034490526 -0.040959086
000370 a3 ff 0c bd f9 01 53 bd 2d 42 1d bd 7f 79 a6 3c
       -0.03442348 -0.051515553 -0.03839319 0.020321606
000380 cd 9c e5 3c 24 73 3a 3d a3 4b 14 3d d1 55 5c 3d
       0.02802887 0.045519963 0.036204945 0.05379278
000390 a4 5b f3 3c 19 ad d4 3c 34 19 17 3d 96 dd 76 bc
       0.029706784 0.025961446 0.03688927 -0.015067479
0003a0 2e 0e b6 bb 12 a9 87 3d e3 49 01 3d 26 ea 11 3d
       -0.0055558896 0.066240445 0.031564604 0.035623692
0003b0 9f 15 bd bc 7d f2 10 3d 83 86 87 3d e8 3b 33 bd
       -0.023081599 0.035387505 0.06617453 -0.043758303
0003c0 eb df 7e 3c 90 17 4a bc 01 60 47 3c bc 9d 87 3c
       0.015556316 -0.012334719 0.012168885 0.016554706
0003d0 37 a9 ec 3c 02 78 e3 bc e2 60 51 bd 8a 35 17 3d
       0.028889282 -0.027767185 -0.051117785 0.036916293
0003e0 6a 0e 59 bd 9e 8b 5c 3d e5 b4 20 3c ff 23 62 3c
       -0.052992262 0.053844087 0.009808754 0.013802527
0003f0 0e 91 ac 3c 0f bf e2 bc 53 56 53 bd f8 6c 8c 3c
       0.021065261 -0.027678994 -0.051595997 0.017141804
